RL/best_model.pt (torch, 565154 bytes, 24 tensors)

model.0.weight f4 [128, 10]
000000 c4 db e2 3d 12 0f 50 3e 24 09 8b be 7e 60 39 3e
       0.11077073 0.20318249 -0.2715541 0.18103215
000010 8b d3 98 3e 0f dc 89 3e 88 31 4d 3d 40 1c 2e 3d
       0.29848894 0.26925704 0.050096065 0.04250741
000020 c8 73 ff bd 4c 00 3b be a9 22 42 be a8 b2 46 3d
       -0.124732554 -0.18261832 -0.18958534 0.048510224
000030 20 b6 30 3c 80 e8 f8 3b 80 6b b8 3b b8 f5 1a 3d
       0.0107856095 0.0075960755 0.0056280494 0.037831992
000040 95 f1 3d be 2e 5f 4c be 42 1e 50 3e c0 b1 03 bd
       -0.18549187 -0.19958183 0.20324042 -0.032151937
000050 b6 1b db bd 18 b1 3e 3d b2 82 4e 3e 08 6c 33 3e
       -0.10698645 0.04655561 0.20167044 0.1752168
000060 c9 b4 92 3e c0 ca 86 be b6 7e 7e 3e ec fe 78 be
       0.28653553 -0.2632656 0.24853024 -0.24315995
000070 c0 24 a1 be fe 4f 79 be e6 86 12 3e 39 dd 1b be
       -0.3147335 -0.24346921 0.14309272 -0.15221108
000080 dc dc 8b be 2c a2 5f be 3c 57 1a 3e c6 d1 2f 3e
       -0.2731694 -0.21839207 0.1507234 0.17169866
000090 04 5a 93 be 54 11 bd bd 22 69 19 3e b0 10 62 3d
       -0.28779614 -0.09231821 0.14981511 0.055191696
0000a0 20 14 cc bc 50 77 42 bd 40 c6 9e 3c 14 9e b7 3d
       -0.02491194 -0.047477067 0.019381642 0.08965698
0000b0 84 fc bc 3d 27 26 99 3e 0e 3c 1b 3e 5e d9 de bd
       0.09227851 0.2991192 0.15159628 -0.10881303
0000c0 d9 c5 a0 3e a8 ee 33 be 7e 1a 5f 3e b8 45 dc 3d
       0.31400946 -0.17571509 0.2178745 0.10755485
0000d0 81 da 98 be 66 e8 4f 3e 5c 19 e4 3d 88 8f 85 3d
       -0.29854205 0.20303497 0.111376494 0.06521517
0000e0 77 0b 88 3e 22 33 54 3e 10 d0 e8 3d fe e3 62 3e
       0.26571247 0.2072263 0.1136781 0.22157285
0000f0 47 cb 98 3e 00 10 49 bb 9c 9f 9c be d7 88 9e 3e
       0.29842588 -0.0030679703 -0.30590522 0.30963776
000100 f2 81 02 3e 30 c5 25 bd e0 13 06 3c 68 f9 a5 3d
       0.12744883 -0.040471256 0.0081834495 0.08104211
000110 b4 ce 39 be 48 e5 4f be 20 83 14 bc 02 7c 17 3e
       -0.18145257 -0.20302308 -0.009064466 0.14793399
000120 35 39 81 3e e3 79 23 be 8b ef 9f 3e 9e c4 48 3e
       0.25238958 -0.15964465 0.31237444 0.19606254
000130 ae 3a 1e be b0 17 07 be a3 d0 35 be d0 49 81 bc
       -0.15452072 -0.1319263 -0.1775537 -0.015782267
000140 92 0b 33 3e 1c 30 c5 bd 8e ff 73 3e 25 4b 5b be
       0.17484882 -0.09628317 0.23827955 -0.21415384
000150 7f ce 91 3e a2 4e 78 be e2 4b 31 3e c8 a8 26 3e
       0.28477857 -0.24248746 0.17314103 0.16275322
000160 18 6c 72 be da 5b a5 bd cc 52 81 bd e2 e5 8e bd
       -0.23674047 -0.0807416 -0.063146204 -0.069774404
000170 f0 14 27 3e 80 35 ce bd 00 3b d0 3c 86 d7 87 be
       0.16316581 -0.10068798 0.025418758 -0.2653162
000180 7a 4c 3f 3e 28 da 15 bd 64 ab bd bd 80 93 c8 3c
       0.18681517 -0.036585003 -0.09261206 0.024484396
000190 d4 a3 e3 3d 7f d3 85 3e 28 54 a1 3d e6 00 c0 bd
       0.11115232 0.2613792 0.0787738 -0.09375171
0001a0 20 34 44 bd 00 9f f4 ba 0a ab 42 3e 88 68 7f bd
       -0.047901273 -0.0018663108 0.19010559 -0.06235555
0001b0 b8 b5 5c be b2 db 52 be b3 de 83 3e dd 31 1c be
       -0.21553695 -0.2059162 0.25755844 -0.15253396
0001c0 e0 e5 60 3d 61 9a 11 be 9d 5e 99 3e 64 2c 1b 3e
       0.054906726 -0.14219047 0.29954997 0.15153652
0001d0 00 33 22 bb c5 b9 05 be 32 e4 04 3e 40 1f 47 3c
       -0.0024749637 -0.13059147 0.12977675 0.012153447
0001e0 9e d6 db bd 0c 59 e7 3d 4c 88 3a 3e 2c 6b 5d be
       -0.10734294 0.11296281 0.18216056 -0.21622914
0001f0 50 1c af 3d ee 63 86 be 8c bb 0a 3e b8 02 90 3d
       0.08550322 -0.26248115 0.13548106 0.070317686
000200 60 1a 6f bd bc c9 87 3d bf 46 a0 be 38 77 6e 3d
       -0.058374763 0.06630275 -0.31303975 0.058219165
000210 b0 be 84 bd d4 e8 0d be 36 fb 6b 3e 5c 56 af 3d
       -0.06481683 -0.13858348 0.23045048 0.085613936
000220 c6 4a 32 be 9e 7f 57 3e 72 63 8f bd 60 d4 b8 3d
       -0.17411336 0.21044776 -0.070013896 0.09024882
000230 40 f4 df 3d 02 78 4f 3e 52 d1 6e be 9a 37 3f 3e
       0.10935259 0.20260623 -0.23322037 0.18673554
000240 62 0c b0 bd 03 93 0d be 0e 46 95 be 98 a2 90 bd
       -0.08596112 -0.13825612 -0.2915501 -0.07062262
000250 05 3f 70 be 9c 57 5c be fa 98 25 3e a5 98 95 3e
       -0.2346154 -0.21517795 0.16171637 0.2921802
000260 10 e5 d3 3d e8 d3 05 3d d2 71 5f 3e f8 97 ac 3d
       0.103464246 0.032672793 0.21820763 0.08427423
000270 2c d5 de 3d 96 a5 39 3e a6 a4 4b be 68 bf 0e bd
       0.10880503 0.18129572 -0.19887027 -0.034850508
000280 6c c8 b6 3d 1a b4 9f bd 5c d8 31 be 46 26 9a be
       0.08924946 -0.077980235 -0.17367691 -0.30107325
000290 d8 d6 2d 3e 60 76 cb bc 34 02 82 3d 41 01 8b 3e
       0.16976488 -0.024836719 0.063480765 0.27149394
0002a0 f5 01 83 3e 3a 1f d8 bd 48 f5 30 3e c7 e4 35 be
       0.2558743 -0.10552831 0.17281067 -0.17763053
0002b0 a1 46 8e be 13 a4 96 3e a7 a8 4a be c0 ac f8 bb
       -0.2778826 0.29422054 -0.19790898 -0.007588953
0002c0 b0 44 9b bd da 39 51 3e 00 6c 4b be 54 b3 4a be
       -0.075814605 0.20432225 -0.19865417 -0.19794971
0002d0 03 51 91 3e a2 72 92 be ce de 22 3e e5 56 87 3e
       0.2838212 -0.28603083 0.15905306 0.26433483
0002e0 8f 7a 46 be ee bd 13 3e 86 b6 63 3e b0 e5 c9 3c
       -0.1938269 0.14427921 0.22237596 0.024645656
0002f0 62 e2 3e 3e 60 c5 04 3c d6 a5 44 3e 4a b9 76 3e
       0.18641046 0.0081036985 0.19203886 0.2409412
000300 54 17 cf 3d 00 ec e8 b9 86 fb 99 be 7b 33 8c 3e
       0.10111871 -0.00044426322 -0.3007471 0.27383026
000310 ba fc 9e be 68 a8 b9 3d 97 40 90 be 8a b7 57 be
       -0.3105219 0.09065324 -0.28174278 -0.21066108
000320 f8 dc dc 3d 60 8a 4a be 51 2e 89 3e d8 d1 4d bd
       0.10784334 -0.19779348 0.2679315 -0.05024895
000330 e8 82 51 be d7 76 a1 3e 38 c8 11 3e 92 15 d6 bd
       -0.20460093 0.3153598 0.14236534 -0.10453333
000340 ee d8 44 be 90 15 f7 3d d6 0a 44 3e e5 2c 86 3e
       -0.19223377 0.120646596 0.19144759 0.26206127
000350 82 76 6f 3e 5a 05 5f 3e 9d a8 30 be 66 90 47 3e
       0.23385051 0.21779385 -0.17251821 0.19488677
000360 40 61 2e be c4 f2 ae bd 0a 49 44 3e 70 25 8e be
       -0.17029285 -0.085423976 0.19168487 -0.27762938
000370 b0 91 b5 3d e5 fb 8e 3e 4e 77 7a 3e 31 06 90 be
       0.08865678 0.27926555 0.24459574 -0.28129724
000380 e0 c3 57 3c 18 d9 23 be 4c 10 d3 bd 7c 44 f8 3d
       0.013169259 -0.16000783 -0.10305843 0.12122437
000390 f0 a1 a6 3c 80 9e db bb 75 2f 90 3e ae 39 1f 3e
       0.02034089 -0.0067022443 0.28161207 0.15549347
0003a0 9b fb 85 be 52 59 53 3e 98 24 81 be 05 a8 35 be
       -0.26168522 0.20639542 -0.2522323 -0.17739876
0003b0 c0 b8 41 3c 80 7f 3b 3b 30 83 f7 3c 8f 96 3a be
       0.011823833 0.0028609931 0.030213922 -0.18221496
0003c0 6b a5 14 be 94 6e 9e 3d e7 c2 0a be 41 18 a0 3e
       -0.14516227 0.07735935 -0.13550912 0.31268504
0003d0 94 33 5a be c0 8a 04 3c 34 2b 83 bd c0 19 0f 3c
       -0.21308738 0.008089721 -0.06404725 0.008734167
0003e0 b4 c2 a2 bd f4 22 71 be d2 19 a9 bd 55 3e 93 3e
       -0.07947293 -0.2354849 -0.08256878 0.28758493
0003f0 9f 41 95 3e e5 27 21 be f6 85 72 3e 66 99 5d 3e
       0.29151627 -0.15737875 0.23683915 0.21640548

model.0.bias f4 [128]
000000 3e 01 1a be f0 52 a5 bd 80 60 3a bb c5 d7 23 be
       -0.15039536 -0.0807246 -0.0028438866 -0.16000278
000010 6e a7 0e 3d e2 b4 16 be 9f 57 a9 3d 50 ea 38 3e
       0.034827642 -0.14717439 0.082686655 0.18058133
000020 bf 74 2f be c4 67 e5 bd 45 aa 11 be d4 05 e7 bd
       -0.17134379 -0.11201432 -0.14225109 -0.112804085
000030 77 9c 33 3e 08 b1 c8 3c f5 fa 1e be bc 70 8b be
       0.17540155 0.024498478 -0.1552542 -0.27234447
000040 97 e7 53 3e ef 29 e5 3d a9 c2 4a 3e ff 95 83 3e
       0.20693813 0.11189639 0.1980082 0.25700375
000050 33 60 ed 3d de 40 e5 3d a5 c8 16 3e 8b 51 33 3d
       0.11590614 0.11194013 0.14724977 0.043778937
000060 a3 a2 93 3e 0a ff 14 be 4e 1a 5c 3e 30 a1 52 bd
       0.2883502 -0.14550415 0.2149441 -0.05142325
000070 e1 a6 29 3d 95 be 02 3e c0 b1 a0 3e 91 64 1a 3e
       0.041418914 0.12768014 0.31385612 0.15077426
000080 15 3f 2d be 19 90 8b 3e 20 9d d8 bd df ce 27 3e
       -0.16918595 0.27258375 -0.10576844 0.16387509
000090 66 07 56 3e e0 ef a0 3e 2a d2 60 3e 41 1b 3b 3e
       0.2090126 0.3143301 0.21955171 0.18272115
0000a0 96 0f a0 3e c3 f5 2b be 89 27 8a be 94 b0 9c be
       0.3126189 -0.1679297 -0.26983288 -0.30603468
0000b0 a0 a8 d3 bc f2 25 03 3e f0 65 1c bd c8 7b b1 bd
       -0.025837243 0.12807444 -0.038183153 -0.086661875
0000c0 97 9e 21 be 90 aa 9d 3e 60 46 e2 3d 38 1f 81 be
       -0.15783153 0.3079419 0.11048579 -0.2521913
0000d0 f8 de 78 bd 1e b1 7b be 50 ed 60 3e 5e c5 f6 3d
       -0.060759515 -0.24579284 0.21965528 0.120493636
0000e0 a9 90 2d be cb 93 2a be 1e 96 e2 bd 9c cc 96 be
       -0.16949715 -0.16657941 -0.11063789 -0.2945298
0000f0 ca ef e3 bd 89 e1 42 be 3d d7 c6 3d cf 7e 9f be
       -0.111297205 -0.19031347 0.09709022 -0.31151435
000100 49 e7 e9 3d d6 ef 52 be 9a ba 9b be f8 65 72 bd
       0.11421067 -0.20599303 -0.30415803 -0.059179276
000110 74 5e 70 be 49 26 03 be 2a d1 9b be 70 98 2f bd
       -0.23473531 -0.12807573 -0.30433017 -0.042869985
000120 ac ba ba bd 30 be 91 bc e5 05 85 3e 78 66 d9 bd
       -0.09117636 -0.017790884 0.2598106 -0.106152475
000130 88 c6 14 be 8c 85 c8 bd 4e 62 e8 bd 29 95 9c 3d
       -0.14528859 -0.09791097 -0.11346875 0.076456375
000140 10 d2 95 bc 23 f6 2e be b9 99 71 3e 87 dd 8f 3d
       -0.018288642 -0.17086081 0.23593797 0.07024675
000150 a5 70 24 be 62 fc 42 3e 7f 83 7f 3d ab 58 6c 3e
       -0.16058595 0.19041589 0.062381264 0.23080699
000160 4e 56 9f 3d b4 88 f2 3c 72 84 cc bd 04 c3 a5 bd
       0.07780133 0.0296062 -0.099861994 -0.08093837
000170 92 da 90 3e 32 d2 94 bd 8e 26 b1 3d dd f6 0c be
       0.28291756 -0.07266654 0.08649932 -0.13766046
000180 a6 1e 53 3e 80 34 1f bd a7 6f cd 3d 88 0c 90 be
       0.2061716 -0.038868427 0.100310616 -0.2813456
000190 80 27 93 be ae 15 82 3e 10 0c 13 3e a0 c6 30 bc
       -0.28741074 0.25407165 0.1436007 -0.010789543
0001a0 38 1a 41 bd 0f 2d 9e be 8b a5 81 be bc e6 2e 3e
       -0.047144145 -0.30893752 -0.25321612 0.17080206
0001b0 29 d3 30 3e a0 2e 90 3e 3c db 87 be 16 2d 13 3e
       0.17268051 0.28160572 -0.2653445 0.14372668
0001c0 40 0f c0 bd 5e 4c d7 bd c5 2f 45 3d b0 07 df bc
       -0.09377909 -0.10512613 0.04814126 -0.027225345
0001d0 92 25 8b 3e b4 e6 89 3e 60 2a fe 3c 83 3d 5d 3e
       0.271771 0.26933825 0.031026065 0.21605496
0001e0 7b 97 0f 3e 23 f8 ae 3d b4 aa 9a 3e a6 a4 12 3e
       0.14022629 0.08543422 0.3020836 0.14320621
0001f0 f1 e7 67 3e 2c 19 b8 3d 2a f8 47 be 5c a1 95 bd
       0.22647072 0.08989176 -0.19528261 -0.073061675

model.2.weight f4 [128, 128]
000000 bc e1 d1 3c 5a f3 63 3d 3b 29 ad 3d 24 d0 12 3d
       0.025620334 0.055652 0.0845513 0.03584303
000010 ba 69 4f 3d f0 6b f6 3b 7e 04 a3 bd 2a 4a 90 bd
       0.050637938 0.0075201914 -0.07959841 -0.07045396
000020 36 14 a7 bd 20 f1 9a bc f9 32 01 bd 0a 92 59 bd
       -0.08158152 -0.018913805 -0.031542752 -0.05311779
000030 a0 f6 a2 bd 34 8f 9d bd de 0f 3b 3d 40 56 00 bc
       -0.07957196 -0.076933295 0.04566943 -0.007833064
000040 00 51 62 3a 80 28 b7 3b 6c dc 8a 3c 7d a5 8e 3d
       0.0008633286 0.005589545 0.016950808 0.06965158
000050 93 08 9e 3d 28 fb eb 3c be dc 04 bd 7b 97 99 3d
       0.07716479 0.028806284 -0.03243708 0.07499596
000060 80 b7 57 ba 80 0b b8 bc 7d 6b a7 bd ea f3 e6 bc
       -0.0008228943 -0.022466421 -0.08174799 -0.02819248
000070 40 cb 7e bb c4 66 b3 bc 2e 67 0d 3d 28 0d c8 bc
       -0.003887847 -0.021899588 0.034522228 -0.024420336
000080 f4 28 0e 3d ca 5c 8c bd 9d b1 a2 3d 60 84 b2 bd
       0.034707025 -0.068536356 0.07944033 -0.08716655
000090 5b 16 af 3d 18 67 30 3c 78 ed ab bc e0 d4 f5 bc
       0.08549186 0.010766767 -0.020987257 -0.030008733
0000a0 56 be 1f 3d 51 45 18 bd 78 f5 2b 3c 40 33 62 3b
       0.038999878 -0.03717548 0.010495536 0.003451541
0000b0 72 e1 ff bc 22 ad 6f bd 60 3b 5b bb f8 88 24 bd
       -0.03123543 -0.05851472 -0.0033452138 -0.040169686
0000c0 85 c2 9c bd 89 6c 81 3d fc f8 bb bc 06 e9 49 3d
       -0.07654289 0.063195296 -0.022945873 0.049294494
0000d0 82 25 84 bd 1b 55 ab 3d 88 9d b5 3c bd 66 a3 3d
       -0.064524665 0.08365842 0.022169843 0.0797858
0000e0 80 dd ef 3a 80 44 a4 bd 40 34 fa bc 5a d9 26 3d
       0.0018300265 -0.08020878 -0.030542493 0.040734626
0000f0 bb f3 85 3d 96 14 6b bd 22 3c 33 3d 08 63 f9 3c
       0.065406285 -0.05739268 0.04375852 0.03044273
000100 4d f8 86 3d 56 9a 21 3d 2c a9 cf bc 77 eb 57 bd
       0.06590328 0.039453827 -0.025349222 -0.05271479
000110 c2 b2 67 bd 30 fa 5d bc 0e c1 61 3d 70 dd ba bc
       -0.05656696 -0.013548419 0.055115752 -0.022810668
000120 00 e8 82 bb 0b 41 5f bd 76 69 45 bd 2b 3e 01 bd
       -0.0039949417 -0.05450539 -0.04819628 -0.03155343
000130 cb 45 89 bd 14 9c b3 3c 20 7f 09 bc 38 b2 f8 3c
       -0.06702765 0.02192501 -0.008392125 0.030358419
000140 e6 33 e0 bc c2 59 62 3d 0c f0 a4 bd 0c ef fd 3c
       -0.027368497 0.05526138 -0.08053598 0.030997775
000150 38 27 8b bc 20 a7 13 3b f8 d4 65 3c 30 b3 9d bb
       -0.016986474 0.0022530034 0.0140278265 -0.0048126206
000160 68 05 8f bc dd 8c 92 3d 48 63 13 3d a6 31 18 bd
       -0.017458633 0.07155774 0.035983354 -0.037156723
000170 46 ee 40 3d 40 73 d4 3c a0 32 e0 3c 0d 50 98 bd
       0.047102235 0.025933862 0.02736789 -0.074371435
000180 56 e3 ad bd b6 f8 1e bd fe 85 63 3d c1 04 9d 3d
       -0.084906265 -0.038811408 0.055547707 0.07666922
000190 d4 a1 5b bd d4 3a 97 3c 8d 5e 90 3d 2c 56 ee 3c
       -0.05362113 0.018460669 0.07049284 0.029093824
0001a0 42 d8 3a bd 1c 57 7a bd 1c ef 86 bd 9b 2c 84 bd
       -0.045616396 -0.06111823 -0.06588575 -0.0645382
0001b0 74 a8 10 3d 98 a2 eb bc 38 93 95 bc 2d 5c 8e 3d
       0.0353169 -0.028764054 -0.018258676 0.06951175
0001c0 db 00 90 bd ac d6 b9 bc 2d a2 a4 bd 40 41 bf bb
       -0.07031413 -0.022685371 -0.08038745 -0.005836636
0001d0 96 d6 65 3d 11 94 9f bd 7c 8e 72 bd 66 b1 98 bd
       0.05611285 -0.07791913 -0.059217915 -0.07455711
0001e0 69 7c 89 3d e7 98 ac 3d b0 b6 1f 3c 78 ce 86 bd
       0.067131825 0.08427601 0.009748146 -0.065823495
0001f0 ab 50 88 3d f0 99 dc 3b 8e 15 45 3d c0 18 db bc
       0.06656011 0.006732218 0.04811626 -0.0267452
000200 50 82 80 bd f0 0f ba 3b 3f 6f 81 3d 2e 83 7c 3d
       -0.06274855 0.0056781694 0.06320047 0.06164854
000210 6d 62 a7 3d 2c 3d 91 3c 58 98 7d bc 48 8a 7c bc
       0.0817307 0.017729364 -0.015478216 -0.015413828
000220 80 ac 84 3c d0 f7 b7 bc 40 a9 70 bd 80 33 b9 bb
       0.016195536 -0.022457033 -0.05875516 -0.005651891
000230 f2 58 20 3d 28 2a a2 3c a5 7d 00 bd 24 49 d3 bc
       0.039147325 0.019795492 -0.031369824 -0.025791712
000240 20 ff 90 bc 54 70 8a bd 3f 20 62 bd 30 40 0e 3d
       -0.017699778 -0.06759706 -0.055206534 0.034729183
000250 b8 55 b0 bc 0e fa 74 3d a0 ce 31 bb 50 4c 6e 3c
       -0.021525249 0.059808783 -0.0027131215 0.0145445615
000260 fc 77 c3 bc a8 8c 96 bd e8 63 1d bc f9 76 84 3d
       -0.023860924 -0.07351047 -0.009606339 0.06468005
000270 8c 2c ad 3c cc 3a d2 3c bb b9 b3 bd 48 23 40 bc
       0.021139406 0.025662802 -0.0877566 -0.011727162
000280 b0 a7 73 bc c9 ab 8d 3d c2 2d 53 bd 76 95 7b bd
       -0.014871523 0.06917531 -0.05155731 -0.061421834
000290 ab bd 87 3d 16 ea 19 3d fe 5c 7e 3d ac e4 8c 3c
       0.06627973 0.037576757 0.062100403 0.017198883
0002a0 3c 29 c0 bc da 8b 41 3d 95 ee 4e bd 30 a2 91 bc
       -0.023457162 0.047252513 -0.0505205 -0.017777532
0002b0 2d 67 4d bd 10 c9 b0 bb 38 b5 be 3c 8f 17 92 3d
       -0.050147224 -0.0053950623 0.023279771 0.071334
0002c0 72 61 5b bd e0 18 9e 3c c0 bf fa ba 20 7e 5d bc
       -0.053559728 0.01929897 -0.0019130632 -0.01351884
0002d0 af 51 8e 3d 00 a0 26 b8 8e dd 0b 3d 96 5a 61 bd
       0.06949174 -3.9726496e-05 0.034146838 -0.05501803
0002e0 06 81 03 bd 3d 48 9f 3d be b2 8a bd 51 09 3f bd
       -0.03210547 0.0777745 -0.067723736 -0.046639744
0002f0 ee e0 69 3d 12 38 65 3d 3d 0d 2a bd a2 e3 78 3d
       0.057099275 0.055961676 -0.04151653 0.060763963
000300 0b 6b 87 3d 5c 49 8c bc 98 2f 0e 3c 88 8a 6d bd
       0.06612214 -0.017124824 0.008678339 -0.05799344
000310 c6 42 ab bd 1f 18 8f 3d 6c ee 6b bd 0e 93 68 3d
       -0.083623454 0.069870226 -0.057600424 0.056780867
000320 b9 3b 25 bd 6a 94 7e 3d 63 12 8d 3d be c2 51 3d
       -0.04034016 0.062153257 0.068882726 0.05121111
000330 b8 20 0e 3d a2 4c 62 3d e0 4e 12 bb 6a 98 44 bd
       0.03469917 0.055248864 -0.0022324845 -0.047996916
000340 e6 cd 4f 3d 8d 80 5f bd 87 86 2a bd 9a 64 8e bd
       0.05073347 -0.054565955 -0.0416322 -0.06952782
000350 c4 ce 9d bd 00 4b e3 3b b4 bc 00 3d 5a 51 1d 3d
       -0.07705453 0.006936431 0.03142996 0.03840766
000360 1e 5f 74 bd e4 51 c7 3c 7e 3a 4a 3d aa 76 29 3d
       -0.059661023 0.02433104 0.04937219 0.041372932
000370 44 1e 95 bd 1c 3c 38 bd 70 86 c2 3c 70 0f f6 3c
       -0.07281163 -0.0449792 0.023745745 0.030036658
000380 14 84 8d bd b0 f4 71 3c 13 72 2f bd 42 d2 81 bd
       -0.069099575 0.014767811 -0.0428334 -0.063389316
000390 41 f2 8f 3d d6 b0 83 bd 00 ba 90 3a b2 91 6a bd
       0.07028628 -0.06430213 0.001104176 -0.057267852
0003a0 c8 0a 72 bd a4 72 9b bc 4c 47 d5 bc 46 9f 31 3d
       -0.059092313 -0.018975563 -0.026034974 0.043364786
0003b0 80 a9 ce 3c c0 9c 13 3c c0 b8 e9 3b 90 17 09 3d
       0.025227308 0.00900954 0.0071326196 0.033469737
0003c0 d8 e5 0d bc e7 0d 95 3d 9e d0 b4 bd 87 1c 59 bd
       -0.008660756 0.07278042 -0.08828853 -0.05300572
0003d0 b4 80 90 3c 85 67 83 3d 82 37 0d bd db 6e 80 3d
       0.017639495 0.06416229 -0.034476765 0.06271144
0003e0 60 a2 65 bc d8 9b d3 3c 0a cc 5e bd 12 2a 42 bd
       -0.014015764 0.025831148 -0.054393806 -0.047403403
0003f0 60 29 64 bb a2 01 84 bd dc 3f c3 3c 90 aa 0a 3d
       -0.00348147 -0.06445624 0.023834161 0.033854067

model.2.bias f4 [128]
000000 c8 bb 65 bc d2 75 40 bd 36 f9 35 3d c9 3c 4a 3d
       -0.014021821 -0.046987362 0.04442712 0.049374375
000010 0d 68 fd bb 6e b8 18 bd 0c 5d 81 bd c8 00 11 3e
       -0.007733351 -0.03728526 -0.063165754 0.14160454
000020 3b c2 30 3c e6 aa f7 3b 7b 2e 1a bd b7 58 01 3e
       0.010788496 0.0075582145 -0.037641983 0.12631498
000030 50 47 b5 bb ec b9 6a bd ff c7 1c 3d 54 30 d7 bc
       -0.0055321828 -0.057306215 0.03827667 -0.026268162
000040 ad ee 9b bd 5d 0a 97 3d 57 54 91 bd 47 d4 83 3d
       -0.07613883 0.073750235 -0.07096165 0.06436973
000050 30 b0 5f bc d0 05 52 bd 53 3d 83 3d 27 27 c5 3c
       -0.013652846 -0.051275074 0.06408181 0.02406652
000060 84 a3 59 3d 1f 4c 8a 3d 90 0b a2 bd c5 1c 12 bd
       0.053134456 0.067528 -0.079123616 -0.035671968
000070 c0 c4 71 3c ac 28 0d 3d 1f 35 11 3d 70 62 11 3b
       0.0147563815 0.034462616 0.03545105 0.0022183917
000080 7c 53 7f bd 12 9d 87 3d a8 e4 a2 bd 2c e5 7f 3d
       -0.062335476 0.06621756 -0.07953769 0.062474415
000090 8d cf 8c 3d 2a 21 29 3d d7 7b 02 3d b8 f8 cd 3b
       0.06875525 0.041291393 0.031856384 0.006285753
0000a0 50 63 a5 bb 11 a1 98 3d 01 2c 46 bd c7 83 2e bd
       -0.0050472394 0.07452596 -0.04838181 -0.04260614
0000b0 7c 1f af bd 80 25 92 bd 81 86 06 3d c5 1f a3 bd
       -0.08550927 -0.07136059 0.032843117 -0.07965044
0000c0 5f b2 db bb 72 a2 2c 3d 48 e9 70 3c 88 a0 73 bc
       -0.006704613 0.042147107 0.014704056 -0.014869817
0000d0 9c cb 36 3c 5d d5 a4 bd d4 8e e0 3c 4f dd 8e bc
       0.011156943 -0.08048508 0.027411856 -0.017439513
0000e0 18 86 68 bc 82 71 21 bd eb 52 03 bb 0b 69 8d 3d
       -0.014192127 -0.03941489 -0.0020038437 0.06904801
0000f0 fc 49 3f bd e6 6e 6d bb 88 f1 28 bc 4b aa 2e bd
       -0.046701416 -0.003622943 -0.010311492 -0.042642873
000100 02 24 8a bd 7a c2 a8 bc 80 e5 be 3a 74 80 99 bd
       -0.06745149 -0.020600546 0.0014564246 -0.074952036
000110 00 40 09 3c a8 b3 7f bc 38 15 ae bd 4c d2 9a bd
       0.008377075 -0.015606798 -0.08500141 -0.07559642
000120 2d 73 83 3d 00 92 14 39 2b 83 9d bd b0 d8 54 bc
       0.064184524 0.00014168769 -0.07691034 -0.012991115
000130 46 b9 a4 38 30 39 40 3c 39 cd 5a 3d d2 54 3c bd
       7.854639e-05 0.011732385 0.05341837 -0.04597933
000140 8d 6a a6 36 f2 b3 10 3d 3a 0a 94 bd 66 21 b7 3c
       4.9595897e-06 0.03532786 -0.07228513 0.022354793
000150 b0 26 5e bc 77 d1 0c bd 06 4d 71 bd 98 87 a7 bd
       -0.0135590285 -0.03437945 -0.058911346 -0.08180159
000160 c7 0c 1d 3d a1 2e 85 3d 48 60 9a bc f5 11 60 bd
       0.038342264 0.065030344 -0.018844739 -0.054704625
000170 f6 e9 5a 3d 53 37 99 3d 2c 9b a8 bc bf d6 dd bc
       0.05344578 0.074812554 -0.020581804 -0.027079938
000180 8d 91 85 3d 60 52 3b bb 3e 44 c7 bb a1 79 89 3d
       0.06521902 -0.0028583035 -0.006081133 0.06712652
000190 4f 61 3d 3c d7 b7 2a bd 62 68 2d bb a6 b5 3c 3d
       0.011558845 -0.04167923 -0.0026459922 0.04607167
0001a0 af bf ca 3d 66 44 2b bd 56 c4 6e 3d dc 2e 9d bc
       0.09899842 -0.041813277 0.05829271 -0.019187383
0001b0 44 d8 04 3d 97 9e 4d 3d 86 6d fc bc ed 62 1f bc
       0.03243281 0.05020007 -0.030813944 -0.009728176
0001c0 40 c5 c4 ba c7 f3 24 3d 89 20 60 3d 06 1d 2e 3d
       -0.0015012398 0.040271547 0.054718528 0.042508148
0001d0 00 fb b3 bd 2f 61 38 3d e8 97 ad 3c 94 19 e4 3c
       -0.08788109 0.045014556 0.021190599 0.027844228
0001e0 5a e5 5f 3d 4f e3 93 bd 6a 24 d7 bc 54 82 82 3a
       0.054662086 -0.0722109 -0.02626248 0.0009957054
0001f0 ca 9a 4c bd a0 78 9e bd a7 f3 90 3c a8 3d 88 3d
       -0.049952306 -0.07737851 0.017694307 0.06652385

model.4.weight f4 [5, 128]
000000 9e 36 6d 3d 04 80 08 3d ba cb 5c 3d 09 7d db ba
       0.057913415 0.03332521 0.053905226 -0.0016745637
000010 4c 8c 27 3d b2 b0 38 bd e8 f9 90 bd 5e 75 81 3d
       0.040905282 -0.045090385 -0.07078916 0.06321214
000020 a8 ad 82 bd 67 ee 49 bc 54 6b b1 bd 09 38 b4 3d
       -0.063807786 -0.012324906 -0.08663049 0.0879975
000030 b2 1a 81 bd 20 00 88 bd 79 b6 84 bd 36 16 3a bd
       -0.0630392 -0.06640649 -0.064801164 -0.04543134
000040 b2 9c ef bc 62 a1 96 bd ef 23 86 bd 65 e1 66 bc
       -0.029249523 -0.07355 -0.065498225 -0.014091824
000050 0a e2 28 3d 58 75 88 bc 20 0e 4f bd 3a e2 b5 3c
       0.041231193 -0.016657516 -0.05055058 0.0222026
000060 80 6a 4d 3d fa 50 74 3d fa 25 6c 3d 49 83 61 bb
       0.050150394 0.059647538 0.057653405 -0.0034410527
000070 90 3b 06 3c 7a 11 b1 3d 7d 98 6a bd 0f 46 03 bd
       0.008192912 0.086459115 -0.05727433 -0.032049235
000080 0a 16 c2 bc ac bb 46 bb bd 13 ae 3d 78 5c 38 bd
       -0.02369215 -0.0030324263 0.084998585 -0.04501006
000090 53 36 33 bd e7 7c 86 bd 6c 6e 20 3d 8e 9e 94 bd
       -0.04375298 -0.06566792 0.039167807 -0.072568044
0000a0 e4 51 8b 3c 11 98 72 bd 20 f2 46 bc 63 f8 a7 3d
       0.017006822 -0.059227053 -0.012142688 0.08201673
0000b0 40 00 8f bb 1b bf a5 3d cc 6b 1b 3c ec 28 10 3d
       -0.0043640435 0.08093091 0.00948615 0.035195276
0000c0 29 fc 00 3d 49 f5 3d bd 1e 82 e5 bc 07 05 a2 bd
       0.03149048 -0.0463765 -0.028016146 -0.07911115
0000d0 b7 72 79 3c aa 8b 90 bd 01 8b 10 bd 82 7d 88 bc
       0.015225104 -0.07057889 -0.035288814 -0.01666141
0000e0 1d 3a 8c 3d 56 f3 77 3d 91 ba 3b bd 8b 6d 3c bd
       0.06847022 0.060534798 -0.04583222 -0.046002906
0000f0 18 54 5a bd 15 eb d2 3c bc 7a cc bc 22 83 07 3d
       -0.053302854 0.025746861 -0.024960868 0.033084042
000100 c3 9f c0 3c 36 b6 89 bd ef e7 ac bd ea 7c 20 bd
       0.02351368 -0.06724207 -0.08442675 -0.039181627
000110 41 1d ac 3d 88 3c c9 bc 24 62 10 bb 70 b0 ca 3b
       0.08404017 -0.024564996 -0.0022031153 0.006185584
000120 11 66 b4 3d a6 17 6b 3d 73 aa a0 3d c7 96 16 bd
       0.0880853 0.0573956 0.078450106 -0.036764886
000130 96 41 75 bd 0f 8d 9a 3d 41 2a 76 3d fe 41 b3 3b
       -0.059877 0.07546436 0.06009889 0.0054705134
000140 80 58 a4 bd eb 03 a8 3d a2 a1 46 3d 6e 80 68 3c
       -0.080246925 0.08203872 0.04849399 0.014190776
000150 b8 c5 77 bc 8e 1b 48 3d f0 99 aa bc 8e 42 6f 3d
       -0.015122823 0.048854403 -0.020825356 0.05841308
000160 27 d3 98 bd 40 58 78 3d b2 66 93 bd 41 f9 3a 3d
       -0.07462149 0.060631037 -0.07197322 0.045647863
000170 9f 3a 31 bd c7 9a 83 bc 3c 1c 07 3d b6 76 29 bd
       -0.043268796 -0.016065015 0.03298591 -0.041372977
000180 c1 75 23 3d fc 2d 81 3c 46 62 9a 3c d2 67 26 3d
       0.03990722 0.015768997 0.018845689 0.040626355
000190 da b2 c1 3d 05 4e 8a 3d 54 09 c0 bd b9 84 a9 3d
       0.09457941 0.06753162 -0.09376779 0.08277268
0001a0 28 2f 48 3e 43 88 2c 3c 7e 8d 0a 3d 6d 09 8c 3d
       0.19549239 0.010530534 0.033826344 0.06837735
0001b0 5b 3f af 3c 36 61 09 3d 2d 52 15 3d 3d 22 5c 3c
       0.021392515 0.033539973 0.036455322 0.013435897
0001c0 51 45 8e 3d 82 a0 84 3d b8 99 72 3d 30 11 71 bc
       0.06946815 0.06475927 0.05922863 -0.0147135705
0001d0 40 80 e2 3a 69 00 44 bd b7 c7 55 3d 9c 78 b7 bc
       0.0017280653 -0.047851954 0.052192416 -0.022396378
0001e0 9a a7 4f bd 03 58 2c bd 31 53 8d 3d b0 64 d4 bc
       -0.050696947 -0.042076122 0.06900633 -0.025926918
0001f0 b0 cd e3 3b 08 9a c7 bc 61 ca e4 3c 23 16 d6 bc
       0.00695201 -0.02436544 0.027928533 -0.026133602
000200 80 5c 58 3c 76 9e 40 3d c6 48 09 bd 89 fb bd 3d
       0.0132056475 0.04702612 -0.033516668 0.09276492
000210 d9 be 20 3c 3b c2 53 bd 85 60 a8 3b 16 e1 ca 3d
       0.009811127 -0.051698904 0.005138459 0.09906213
000220 0a 58 a5 3d 46 41 94 3d a0 52 79 3b 20 de f4 3d
       0.08073433 0.072390124 0.0038043633 0.119564295
000230 57 da a0 3d ed 35 83 bd d6 49 92 bd b9 22 26 bc
       0.07854145 -0.0640677 -0.07142989 -0.010140114
000240 a2 e9 3b 3d b1 7b f3 bb fa 4a 12 3d f5 f3 86 bc
       0.045877106 -0.0074305166 0.035716034 -0.01647375
000250 e3 46 09 bd 18 d7 bc 3c 41 b5 02 bd 1e 42 25 3d
       -0.03351487 0.023051783 -0.03191114 0.040346257
000260 cb c5 8e bd 2d d5 92 3d ba b3 31 bd cb 93 a8 3c
       -0.0697132 0.07169566 -0.04338429 0.020578286
000270 77 da 3b bd dc d1 87 3d 14 01 00 3d 15 77 ae 3c
       -0.04586264 0.066318244 0.03125103 0.021297017
000280 d7 ee 38 3d 0e 30 79 3d cc cb 99 bd f0 1a 5b bd
       0.04514965 0.060836844 -0.07509574 -0.053492486
000290 bb 74 f0 bb 88 15 b8 3d d5 b6 96 3d 99 86 07 3d
       -0.007338134 0.08988482 0.07359091 0.033087347
0002a0 c2 2b 1e 3d f6 83 e8 3c e8 bd e8 3c e8 d0 5d 3c
       0.03861595 0.028383236 0.028410867 0.013538577
0002b0 08 5a 63 bc ec f1 d2 bc c3 d1 6b 3c 7c e8 cf bc
       -0.013876446 -0.025750123 0.014393273 -0.025379412
0002c0 4a d2 bb bd 8b 60 67 bd f8 12 7b bd 3c 35 e3 3c
       -0.09170969 -0.056488555 -0.061297387 0.027735345
0002d0 a8 f6 55 3d e3 49 a0 bd 8c ff 9a 3d aa 31 e3 3c
       0.052237183 -0.07826593 0.07568273 0.027733643
0002e0 71 82 9c 3d 38 99 90 bc a3 d5 98 bd 9c bb b5 bc
       0.07642067 -0.017651185 -0.07462623 -0.022184186
0002f0 19 1a ae 3d e5 d8 26 bc a0 ee a1 bc cf 1e 92 3d
       0.085010715 -0.010183548 -0.019767106 0.071347825
000300 bf 11 8f 3d ac 04 a5 bc dd cd a4 3d 5e 51 aa bd
       0.06985807 -0.02014383 0.08047078 -0.08316301
000310 cd 77 b2 3d 27 2c a6 bd 42 7d b5 3c df 08 11 bd
       0.087142564 -0.0811389 0.022154454 -0.03540885
000320 af c7 94 3d 03 09 84 bd 07 ba 9a 3d 36 41 5a 3d
       0.07264649 -0.06447031 0.07555013 0.053284846
000330 38 f5 be bc 9e 31 7e 3d 70 69 6d 3d 16 3d b3 3c
       -0.023310289 0.062059037 0.05796188 0.021879714
000340 1c 02 5b 3d a4 47 cf 3b fe 26 61 3d 7c c8 7a 3d
       0.05346881 0.006325679 0.054968826 0.061226353
000350 6a cb 33 3d 15 00 90 bd 70 90 11 3c 6a 44 6f bd
       0.043895163 -0.07031266 0.008884534 -0.058414854
000360 9b 71 8d ba fc 63 26 3d 98 cd ee 3c 35 e1 3d bd
       -0.0010791303 0.040622696 0.02915077 -0.046357352
000370 0b 44 a7 bd 4e a6 5c bd fa cf 13 3d 75 75 a2 bd
       -0.08167275 -0.053869538 0.036087014 -0.079325594
000380 08 90 2c 3d b0 7d 2b bc 3f 49 50 bd 79 2a a9 3d
       0.042129546 -0.010466978 -0.050851103 0.08260054
000390 03 68 81 3d 81 e2 84 bd 7a 45 6c bd 8e f0 27 bd
       0.06318667 -0.06488515 -0.057683446 -0.041000895
0003a0 59 e6 2e 3e 71 e6 88 bd 70 79 43 bd 1e 09 49 3d
       0.17080058 -0.06684578 -0.047723234 0.04908096
0003b0 2b de 28 3c 53 58 2e 3d d1 d8 01 3d fa 68 9d bd
       0.010306875 0.0425647 0.031700913 -0.07686038
0003c0 29 72 3e bd 28 90 96 bd ea 86 9a 3d 7a e2 9a bd
       -0.04649559 -0.073517144 0.07545264 -0.07562728
0003d0 89 72 b3 3d b7 87 6a bd 91 85 49 3d 6b 8c 95 bd
       0.0876208 -0.057258334 0.049199644 -0.07302173
0003e0 0b aa 1a bd 84 98 bf 3d 03 e7 b0 3d e0 47 5d bd
       -0.03775982 0.09355262 0.08637812 -0.054023623
0003f0 65 48 8d 3d b9 01 4a bd 89 d3 95 bc 36 e4 b0 bc
       0.06898574 -0.04931805 -0.018289344 -0.021593194

model.4.bias f4 [5]
000000 fd 14 16 3c 69 f7 d5 bb 60 ff c0 3d f9 ae f6 bc
       0.009160277 -0.0065297377 0.09423709 -0.03011273
000010 73 5b 78 3d
       0.060634088

model.0.weight f4 [128, 10]
000000 c4 db e2 3d 12 0f 50 3e 24 09 8b be 7e 60 39 3e
       0.11077073 0.20318249 -0.2715541 0.18103215
000010 8b d3 98 3e 0f dc 89 3e 88 31 4d 3d 40 1c 2e 3d
       0.29848894 0.26925704 0.050096065 0.04250741
000020 c8 73 ff bd 4c 00 3b be a9 22 42 be a8 b2 46 3d
       -0.124732554 -0.18261832 -0.18958534 0.048510224
000030 20 b6 30 3c 80 e8 f8 3b 80 6b b8 3b b8 f5 1a 3d
       0.0107856095 0.0075960755 0.0056280494 0.037831992
000040 95 f1 3d be 2e 5f 4c be 42 1e 50 3e c0 b1 03 bd
       -0.18549187 -0.19958183 0.20324042 -0.032151937
000050 b6 1b db bd 18 b1 3e 3d b2 82 4e 3e 08 6c 33 3e
       -0.10698645 0.04655561 0.20167044 0.1752168
000060 c9 b4 92 3e c0 ca 86 be b6 7e 7e 3e ec fe 78 be
       0.28653553 -0.2632656 0.24853024 -0.24315995
000070 c0 24 a1 be fe 4f 79 be e6 86 12 3e 39 dd 1b be
       -0.3147335 -0.24346921 0.14309272 -0.15221108
000080 dc dc 8b be 2c a2 5f be 3c 57 1a 3e c6 d1 2f 3e
       -0.2731694 -0.21839207 0.1507234 0.17169866
000090 04 5a 93 be 54 11 bd bd 22 69 19 3e b0 10 62 3d
       -0.28779614 -0.09231821 0.14981511 0.055191696
0000a0 20 14 cc bc 50 77 42 bd 40 c6 9e 3c 14 9e b7 3d
       -0.02491194 -0.047477067 0.019381642 0.08965698
0000b0 84 fc bc 3d 27 26 99 3e 0e 3c 1b 3e 5e d9 de bd
       0.09227851 0.2991192 0.15159628 -0.10881303
0000c0 d9 c5 a0 3e a8 ee 33 be 7e 1a 5f 3e b8 45 dc 3d
       0.31400946 -0.17571509 0.2178745 0.10755485
0000d0 81 da 98 be 66 e8 4f 3e 5c 19 e4 3d 88 8f 85 3d
       -0.29854205 0.20303497 0.111376494 0.06521517
0000e0 77 0b 88 3e 22 33 54 3e 10 d0 e8 3d fe e3 62 3e
       0.26571247 0.2072263 0.1136781 0.22157285
0000f0 47 cb 98 3e 00 10 49 bb 9c 9f 9c be d7 88 9e 3e
       0.29842588 -0.0030679703 -0.30590522 0.30963776
000100 f2 81 02 3e 30 c5 25 bd e0 13 06 3c 68 f9 a5 3d
       0.12744883 -0.040471256 0.0081834495 0.08104211
000110 b4 ce 39 be 48 e5 4f be 20 83 14 bc 02 7c 17 3e
       -0.18145257 -0.20302308 -0.009064466 0.14793399
000120 35 39 81 3e e3 79 23 be 8b ef 9f 3e 9e c4 48 3e
       0.25238958 -0.15964465 0.31237444 0.19606254
000130 ae 3a 1e be b0 17 07 be a3 d0 35 be d0 49 81 bc
       -0.15452072 -0.1319263 -0.1775537 -0.015782267
000140 92 0b 33 3e 1c 30 c5 bd 8e ff 73 3e 25 4b 5b be
       0.17484882 -0.09628317 0.23827955 -0.21415384
000150 7f ce 91 3e a2 4e 78 be e2 4b 31 3e c8 a8 26 3e
       0.28477857 -0.24248746 0.17314103 0.16275322
000160 18 6c 72 be da 5b a5 bd cc 52 81 bd e2 e5 8e bd
       -0.23674047 -0.0807416 -0.063146204 -0.069774404
000170 f0 14 27 3e 80 35 ce bd 00 3b d0 3c 86 d7 87 be
       0.16316581 -0.10068798 0.025418758 -0.2653162
000180 7a 4c 3f 3e 28 da 15 bd 64 ab bd bd 80 93 c8 3c
       0.18681517 -0.036585003 -0.09261206 0.024484396
000190 d4 a3 e3 3d 7f d3 85 3e 28 54 a1 3d e6 00 c0 bd
       0.11115232 0.2613792 0.0787738 -0.09375171
0001a0 20 34 44 bd 00 9f f4 ba 0a ab 42 3e 88 68 7f bd
       -0.047901273 -0.0018663108 0.19010559 -0.06235555
0001b0 b8 b5 5c be b2 db 52 be b3 de 83 3e dd 31 1c be
       -0.21553695 -0.2059162 0.25755844 -0.15253396
0001c0 e0 e5 60 3d 61 9a 11 be 9d 5e 99 3e 64 2c 1b 3e
       0.054906726 -0.14219047 0.29954997 0.15153652
0001d0 00 33 22 bb c5 b9 05 be 32 e4 04 3e 40 1f 47 3c
       -0.0024749637 -0.13059147 0.12977675 0.012153447
0001e0 9e d6 db bd 0c 59 e7 3d 4c 88 3a 3e 2c 6b 5d be
       -0.10734294 0.11296281 0.18216056 -0.21622914
0001f0 50 1c af 3d ee 63 86 be 8c bb 0a 3e b8 02 90 3d
       0.08550322 -0.26248115 0.13548106 0.070317686
000200 60 1a 6f bd bc c9 87 3d bf 46 a0 be 38 77 6e 3d
       -0.058374763 0.06630275 -0.31303975 0.058219165
000210 b0 be 84 bd d4 e8 0d be 36 fb 6b 3e 5c 56 af 3d
       -0.06481683 -0.13858348 0.23045048 0.085613936
000220 c6 4a 32 be 9e 7f 57 3e 72 63 8f bd 60 d4 b8 3d
       -0.17411336 0.21044776 -0.070013896 0.09024882
000230 40 f4 df 3d 02 78 4f 3e 52 d1 6e be 9a 37 3f 3e
       0.10935259 0.20260623 -0.23322037 0.18673554
000240 62 0c b0 bd 03 93 0d be 0e 46 95 be 98 a2 90 bd
       -0.08596112 -0.13825612 -0.2915501 -0.07062262
000250 05 3f 70 be 9c 57 5c be fa 98 25 3e a5 98 95 3e
       -0.2346154 -0.21517795 0.16171637 0.2921802
000260 10 e5 d3 3d e8 d3 05 3d d2 71 5f 3e f8 97 ac 3d
       0.103464246 0.032672793 0.21820763 0.08427423
000270 2c d5 de 3d 96 a5 39 3e a6 a4 4b be 68 bf 0e bd
       0.10880503 0.18129572 -0.19887027 -0.034850508
000280 6c c8 b6 3d 1a b4 9f bd 5c d8 31 be 46 26 9a be
       0.08924946 -0.077980235 -0.17367691 -0.30107325
000290 d8 d6 2d 3e 60 76 cb bc 34 02 82 3d 41 01 8b 3e
       0.16976488 -0.024836719 0.063480765 0.27149394
0002a0 f5 01 83 3e 3a 1f d8 bd 48 f5 30 3e c7 e4 35 be
       0.2558743 -0.10552831 0.17281067 -0.17763053
0002b0 a1 46 8e be 13 a4 96 3e a7 a8 4a be c0 ac f8 bb
       -0.2778826 0.29422054 -0.19790898 -0.007588953
0002c0 b0 44 9b bd da 39 51 3e 00 6c 4b be 54 b3 4a be
       -0.075814605 0.20432225 -0.19865417 -0.19794971
0002d0 03 51 91 3e a2 72 92 be ce de 22 3e e5 56 87 3e
       0.2838212 -0.28603083 0.15905306 0.26433483
0002e0 8f 7a 46 be ee bd 13 3e 86 b6 63 3e b0 e5 c9 3c
       -0.1938269 0.14427921 0.22237596 0.024645656
0002f0 62 e2 3e 3e 60 c5 04 3c d6 a5 44 3e 4a b9 76 3e
       0.18641046 0.0081036985 0.19203886 0.2409412
000300 54 17 cf 3d 00 ec e8 b9 86 fb 99 be 7b 33 8c 3e
       0.10111871 -0.00044426322 -0.3007471 0.27383026
000310 ba fc 9e be 68 a8 b9 3d 97 40 90 be 8a b7 57 be
       -0.3105219 0.09065324 -0.28174278 -0.21066108
000320 f8 dc dc 3d 60 8a 4a be 51 2e 89 3e d8 d1 4d bd
       0.10784334 -0.19779348 0.2679315 -0.05024895
000330 e8 82 51 be d7 76 a1 3e 38 c8 11 3e 92 15 d6 bd
       -0.20460093 0.3153598 0.14236534 -0.10453333
000340 ee d8 44 be 90 15 f7 3d d6 0a 44 3e e5 2c 86 3e
       -0.19223377 0.120646596 0.19144759 0.26206127
000350 82 76 6f 3e 5a 05 5f 3e 9d a8 30 be 66 90 47 3e
       0.23385051 0.21779385 -0.17251821 0.19488677
000360 40 61 2e be c4 f2 ae bd 0a 49 44 3e 70 25 8e be
       -0.17029285 -0.085423976 0.19168487 -0.27762938
000370 b0 91 b5 3d e5 fb 8e 3e 4e 77 7a 3e 31 06 90 be
       0.08865678 0.27926555 0.24459574 -0.28129724
000380 e0 c3 57 3c 18 d9 23 be 4c 10 d3 bd 7c 44 f8 3d
       0.013169259 -0.16000783 -0.10305843 0.12122437
000390 f0 a1 a6 3c 80 9e db bb 75 2f 90 3e ae 39 1f 3e
       0.02034089 -0.0067022443 0.28161207 0.15549347
0003a0 9b fb 85 be 52 59 53 3e 98 24 81 be 05 a8 35 be
       -0.26168522 0.20639542 -0.2522323 -0.17739876
0003b0 c0 b8 41 3c 80 7f 3b 3b 30 83 f7 3c 8f 96 3a be
       0.011823833 0.0028609931 0.030213922 -0.18221496
0003c0 6b a5 14 be 94 6e 9e 3d e7 c2 0a be 41 18 a0 3e
       -0.14516227 0.07735935 -0.13550912 0.31268504
0003d0 94 33 5a be c0 8a 04 3c 34 2b 83 bd c0 19 0f 3c
       -0.21308738 0.008089721 -0.06404725 0.008734167
0003e0 b4 c2 a2 bd f4 22 71 be d2 19 a9 bd 55 3e 93 3e
       -0.07947293 -0.2354849 -0.08256878 0.28758493
0003f0 9f 41 95 3e e5 27 21 be f6 85 72 3e 66 99 5d 3e
       0.29151627 -0.15737875 0.23683915 0.21640548

model.0.bias f4 [128]
000000 3e 01 1a be f0 52 a5 bd 80 60 3a bb c5 d7 23 be
       -0.15039536 -0.0807246 -0.0028438866 -0.16000278
000010 aa 42 0e 3d e2 b4 16 be 39 f9 a8 3d 06 61 38 3e
       0.034731545 -0.14717439 0.082506604 0.18005762
000020 bf 74 2f be c4 67 e5 bd 45 aa 11 be d4 05 e7 bd
       -0.17134379 -0.11201432 -0.14225109 -0.112804085
000030 2b 09 33 3e b7 16 c7 3c f5 fa 1e be bc 70 8b be
       0.17483966 0.024302823 -0.1552542 -0.27234447
000040 e6 55 53 3e 7c 5a e4 3d 4b 3d 4a 3e a2 52 83 3e
       0.20638236 0.11150071 0.19749944 0.2564898
000050 53 88 ec 3d ed 4e e4 3d d2 69 16 3e 4b ac 32 3d
       0.11549439 0.111478664 0.14688805 0.043621343
000060 69 55 93 3e 0a ff 14 be 67 95 5b 3e 30 a1 52 bd
       0.287761 -0.14550415 0.21443711 -0.05142325
000070 2b d9 27 3d 39 24 02 3e 22 65 a0 3e ad d0 19 3e
       0.040978592 0.1270913 0.31327158 0.1502101
000080 15 3f 2d be 2e 51 8b 3e 20 9d d8 bd d2 2f 27 3e
       -0.16918595 0.27210373 -0.10576844 0.16326836
000090 7d 71 55 3e 2a a7 a0 3e a4 55 60 3e 41 e2 3a 3e
       0.20844074 0.31377536 0.2190767 0.18250372
0000a0 f8 d1 9f 3e c3 f5 2b be 89 27 8a be 94 b0 9c be
       0.3121488 -0.1679297 -0.26983288 -0.30603468
0000b0 a0 a8 d3 bc 6d 99 02 3e f0 65 1c bd c8 7b b1 bd
       -0.025837243 0.1275384 -0.038183153 -0.086661875
0000c0 97 9e 21 be 4d 5c 9d 3e 31 75 e2 3d 38 1f 81 be
       -0.15783153 0.30734482 0.11057509 -0.2521913
0000d0 f8 de 78 bd 1e b1 7b be 09 53 60 3e ee 23 f6 3d
       -0.060759515 -0.24579284 0.21906675 0.12018572
0000e0 a9 90 2d be cb 93 2a be 1e 96 e2 bd 9c cc 96 be
       -0.16949715 -0.16657941 -0.11063789 -0.2945298
0000f0 ca ef e3 bd 89 e1 42 be d4 fa c5 3d cf 7e 9f be
       -0.111297205 -0.19031347 0.09666982 -0.31151435
000100 26 5a e9 3d d6 ef 52 be 9a ba 9b be f8 65 72 bd
       0.113941476 -0.20599303 -0.30415803 -0.059179276
000110 74 5e 70 be 49 26 03 be 2a d1 9b be 70 98 2f bd
       -0.23473531 -0.12807573 -0.30433017 -0.042869985
000120 ac ba ba bd 30 be 91 bc f8 c1 84 3e 78 66 d9 bd
       -0.09117636 -0.017790884 0.25929236 -0.106152475
000130 88 c6 14 be 8c 85 c8 bd 4e 62 e8 bd 38 85 9b 3d
       -0.14528859 -0.09791097 -0.11346875 0.07593769
000140 10 d2 95 bc 23 f6 2e be a2 0e 71 3e 2f ca 8e 3d
       -0.018288642 -0.17086081 0.23540738 0.06972157
000150 a5 70 24 be df 64 42 3e aa fd 7d 3d 6b bd 6b 3e
       -0.16058595 0.18983792 0.06200949 0.23021476
000160 d6 36 9e 3d d1 d5 ee 3c 72 84 cc bd 04 c3 a5 bd
       0.07725303 0.02915469 -0.099861994 -0.08093837
000170 da 91 90 3e 32 d2 94 bd b7 52 b0 3d dd f6 0c be
       0.28236276 -0.07266654 0.086095266 -0.13766046
000180 b6 8e 52 3e 80 34 1f bd 23 f2 cc 3d 88 0c 90 be
       0.20562252 -0.038868427 0.100071214 -0.2813456
000190 80 27 93 be b8 cb 81 3e a9 7a 12 3e a0 c6 30 bc
       -0.28741074 0.25350738 0.14304604 -0.010789543
0001a0 38 1a 41 bd 0f 2d 9e be 8b a5 81 be a1 59 2e 3e
       -0.047144145 -0.30893752 -0.25321612 0.17026378
0001b0 84 49 30 3e 38 e5 8f 3e 3c db 87 be ec ae 12 3e
       0.17215544 0.28104568 -0.2653445 0.1432454
0001c0 40 0f c0 bd 5e 4c d7 bd cd ef 42 3d b0 07 df bc
       -0.09377909 -0.10512613 0.047591973 -0.027225345
0001d0 81 d8 8a 3e 93 a1 89 3e 00 ba fa 3c 80 f8 5c 3e
       0.27118304 0.26881084 0.03060627 0.2157917
0001e0 78 24 0f 3e b5 e5 ad 3d 0a 60 9a 3e 4f 6c 12 3e
       0.13978755 0.08491079 0.30151397 0.14299129
0001f0 8e 52 67 3e 8c fc b6 3d 2a f8 47 be 5c a1 95 bd
       0.22590086 0.08934888 -0.19528261 -0.073061675

model.2.weight f4 [128, 128]
000000 bc e1 d1 3c 5a f3 63 3d 3b 29 ad 3d 24 d0 12 3d
       0.025620334 0.055652 0.0845513 0.03584303
000010 ba 69 4f 3d f0 6b f6 3b 7e 04 a3 bd 2a 4a 90 bd
       0.050637938 0.0075201914 -0.07959841 -0.07045396
000020 36 14 a7 bd 20 f1 9a bc f9 32 01 bd 0a 92 59 bd
       -0.08158152 -0.018913805 -0.031542752 -0.05311779
000030 a0 f6 a2 bd 34 8f 9d bd de 0f 3b 3d 40 56 00 bc
       -0.07957196 -0.076933295 0.04566943 -0.007833064
000040 00 51 62 3a 80 28 b7 3b 6c dc 8a 3c 7d a5 8e 3d
       0.0008633286 0.005589545 0.016950808 0.06965158
000050 93 08 9e 3d 28 fb eb 3c be dc 04 bd 7b 97 99 3d
       0.07716479 0.028806284 -0.03243708 0.07499596
000060 80 b7 57 ba 80 0b b8 bc 7d 6b a7 bd ea f3 e6 bc
       -0.0008228943 -0.022466421 -0.08174799 -0.02819248
000070 40 cb 7e bb c4 66 b3 bc 2e 67 0d 3d 28 0d c8 bc
       -0.003887847 -0.021899588 0.034522228 -0.024420336
000080 f4 28 0e 3d ca 5c 8c bd 9d b1 a2 3d 60 84 b2 bd
       0.034707025 -0.068536356 0.07944033 -0.08716655
000090 5b 16 af 3d 18 67 30 3c 78 ed ab bc e0 d4 f5 bc
       0.08549186 0.010766767 -0.020987257 -0.030008733
0000a0 56 be 1f 3d 51 45 18 bd 78 f5 2b 3c 40 33 62 3b
       0.038999878 -0.03717548 0.010495536 0.003451541
0000b0 72 e1 ff bc 22 ad 6f bd 60 3b 5b bb f8 88 24 bd
       -0.03123543 -0.05851472 -0.0033452138 -0.040169686
0000c0 85 c2 9c bd 89 6c 81 3d fc f8 bb bc 06 e9 49 3d
       -0.07654289 0.063195296 -0.022945873 0.049294494
0000d0 82 25 84 bd 1b 55 ab 3d 88 9d b5 3c bd 66 a3 3d
       -0.064524665 0.08365842 0.022169843 0.0797858
0000e0 80 dd ef 3a 80 44 a4 bd 40 34 fa bc 5a d9 26 3d
       0.0018300265 -0.08020878 -0.030542493 0.040734626
0000f0 bb f3 85 3d 96 14 6b bd 22 3c 33 3d 08 63 f9 3c
       0.065406285 -0.05739268 0.04375852 0.03044273
000100 4d f8 86 3d 56 9a 21 3d 2c a9 cf bc 77 eb 57 bd
       0.06590328 0.039453827 -0.025349222 -0.05271479
000110 c2 b2 67 bd 30 fa 5d bc 0e c1 61 3d 70 dd ba bc
       -0.05656696 -0.013548419 0.055115752 -0.022810668
000120 00 e8 82 bb 0b 41 5f bd 76 69 45 bd 2b 3e 01 bd
       -0.0039949417 -0.05450539 -0.04819628 -0.03155343
000130 cb 45 89 bd 14 9c b3 3c 20 7f 09 bc 38 b2 f8 3c
       -0.06702765 0.02192501 -0.008392125 0.030358419
000140 e6 33 e0 bc c2 59 62 3d 0c f0 a4 bd 0c ef fd 3c
       -0.027368497 0.05526138 -0.08053598 0.030997775
000150 38 27 8b bc 20 a7 13 3b f8 d4 65 3c 30 b3 9d bb
       -0.016986474 0.0022530034 0.0140278265 -0.0048126206
000160 68 05 8f bc dd 8c 92 3d 48 63 13 3d a6 31 18 bd
       -0.017458633 0.07155774 0.035983354 -0.037156723
000170 46 ee 40 3d 40 73 d4 3c a0 32 e0 3c 0d 50 98 bd
       0.047102235 0.025933862 0.02736789 -0.074371435
000180 56 e3 ad bd b6 f8 1e bd fe 85 63 3d c1 04 9d 3d
       -0.084906265 -0.038811408 0.055547707 0.07666922
000190 d4 a1 5b bd d4 3a 97 3c 8d 5e 90 3d 2c 56 ee 3c
       -0.05362113 0.018460669 0.07049284 0.029093824
0001a0 42 d8 3a bd 1c 57 7a bd 1c ef 86 bd 9b 2c 84 bd
       -0.045616396 -0.06111823 -0.06588575 -0.0645382
0001b0 74 a8 10 3d 98 a2 eb bc 38 93 95 bc 2d 5c 8e 3d
       0.0353169 -0.028764054 -0.018258676 0.06951175
0001c0 db 00 90 bd ac d6 b9 bc 2d a2 a4 bd 40 41 bf bb
       -0.07031413 -0.022685371 -0.08038745 -0.005836636
0001d0 96 d6 65 3d 11 94 9f bd 7c 8e 72 bd 66 b1 98 bd
       0.05611285 -0.07791913 -0.059217915 -0.07455711
0001e0 69 7c 89 3d e7 98 ac 3d b0 b6 1f 3c 78 ce 86 bd
       0.067131825 0.08427601 0.009748146 -0.065823495
0001f0 ab 50 88 3d f0 99 dc 3b 8e 15 45 3d c0 18 db bc
       0.06656011 0.006732218 0.04811626 -0.0267452
000200 50 82 80 bd f0 0f ba 3b 3f 6f 81 3d 2e 83 7c 3d
       -0.06274855 0.0056781694 0.06320047 0.06164854
000210 6d 62 a7 3d 2c 3d 91 3c 58 98 7d bc 48 8a 7c bc
       0.0817307 0.017729364 -0.015478216 -0.015413828
000220 80 ac 84 3c d0 f7 b7 bc 40 a9 70 bd 80 33 b9 bb
       0.016195536 -0.022457033 -0.05875516 -0.005651891
000230 f2 58 20 3d 28 2a a2 3c a5 7d 00 bd 24 49 d3 bc
       0.039147325 0.019795492 -0.031369824 -0.025791712
000240 20 ff 90 bc 54 70 8a bd 3f 20 62 bd 30 40 0e 3d
       -0.017699778 -0.06759706 -0.055206534 0.034729183
000250 b8 55 b0 bc 0e fa 74 3d a0 ce 31 bb 50 4c 6e 3c
       -0.021525249 0.059808783 -0.0027131215 0.0145445615
000260 fc 77 c3 bc a8 8c 96 bd e8 63 1d bc f9 76 84 3d
       -0.023860924 -0.07351047 -0.009606339 0.06468005
000270 8c 2c ad 3c cc 3a d2 3c bb b9 b3 bd 48 23 40 bc
       0.021139406 0.025662802 -0.0877566 -0.011727162
000280 b0 a7 73 bc c9 ab 8d 3d c2 2d 53 bd 76 95 7b bd
       -0.014871523 0.06917531 -0.05155731 -0.061421834
000290 ab bd 87 3d 16 ea 19 3d fe 5c 7e 3d ac e4 8c 3c
       0.06627973 0.037576757 0.062100403 0.017198883
0002a0 3c 29 c0 bc da 8b 41 3d 95 ee 4e bd 30 a2 91 bc
       -0.023457162 0.047252513 -0.0505205 -0.017777532
0002b0 2d 67 4d bd 10 c9 b0 bb 38 b5 be 3c 8f 17 92 3d
       -0.050147224 -0.0053950623 0.023279771 0.071334
0002c0 72 61 5b bd e0 18 9e 3c c0 bf fa ba 20 7e 5d bc
       -0.053559728 0.01929897 -0.0019130632 -0.01351884
0002d0 af 51 8e 3d 00 a0 26 b8 8e dd 0b 3d 96 5a 61 bd
       0.06949174 -3.9726496e-05 0.034146838 -0.05501803
0002e0 06 81 03 bd 3d 48 9f 3d be b2 8a bd 51 09 3f bd
       -0.03210547 0.0777745 -0.067723736 -0.046639744
0002f0 ee e0 69 3d 12 38 65 3d 3d 0d 2a bd a2 e3 78 3d
       0.057099275 0.055961676 -0.04151653 0.060763963
000300 0b 6b 87 3d 5c 49 8c bc 98 2f 0e 3c 88 8a 6d bd
       0.06612214 -0.017124824 0.008678339 -0.05799344
000310 c6 42 ab bd 1f 18 8f 3d 6c ee 6b bd 0e 93 68 3d
       -0.083623454 0.069870226 -0.057600424 0.056780867
000320 b9 3b 25 bd 6a 94 7e 3d 63 12 8d 3d be c2 51 3d
       -0.04034016 0.062153257 0.068882726 0.05121111
000330 b8 20 0e 3d a2 4c 62 3d e0 4e 12 bb 6a 98 44 bd
       0.03469917 0.055248864 -0.0022324845 -0.047996916
000340 e6 cd 4f 3d 8d 80 5f bd 87 86 2a bd 9a 64 8e bd
       0.05073347 -0.054565955 -0.0416322 -0.06952782
000350 c4 ce 9d bd 00 4b e3 3b b4 bc 00 3d 5a 51 1d 3d
       -0.07705453 0.006936431 0.03142996 0.03840766
000360 1e 5f 74 bd e4 51 c7 3c 7e 3a 4a 3d aa 76 29 3d
       -0.059661023 0.02433104 0.04937219 0.041372932
000370 44 1e 95 bd 1c 3c 38 bd 70 86 c2 3c 70 0f f6 3c
       -0.07281163 -0.0449792 0.023745745 0.030036658
000380 14 84 8d bd b0 f4 71 3c 13 72 2f bd 42 d2 81 bd
       -0.069099575 0.014767811 -0.0428334 -0.063389316
000390 41 f2 8f 3d d6 b0 83 bd 00 ba 90 3a b2 91 6a bd
       0.07028628 -0.06430213 0.001104176 -0.057267852
0003a0 c8 0a 72 bd a4 72 9b bc 4c 47 d5 bc 46 9f 31 3d
       -0.059092313 -0.018975563 -0.026034974 0.043364786
0003b0 80 a9 ce 3c c0 9c 13 3c c0 b8 e9 3b 90 17 09 3d
       0.025227308 0.00900954 0.0071326196 0.033469737
0003c0 d8 e5 0d bc e7 0d 95 3d 9e d0 b4 bd 87 1c 59 bd
       -0.008660756 0.07278042 -0.08828853 -0.05300572
0003d0 b4 80 90 3c 85 67 83 3d 82 37 0d bd db 6e 80 3d
       0.017639495 0.06416229 -0.034476765 0.06271144
0003e0 60 a2 65 bc d8 9b d3 3c 0a cc 5e bd 12 2a 42 bd
       -0.014015764 0.025831148 -0.054393806 -0.047403403
0003f0 60 29 64 bb a2 01 84 bd dc 3f c3 3c 90 aa 0a 3d
       -0.00348147 -0.06445624 0.023834161 0.033854067

model.2.bias f4 [128]
000000 c8 bb 65 bc d2 75 40 bd 36 f9 35 3d c9 3c 4a 3d
       -0.014021821 -0.046987362 0.04442712 0.049374375
000010 0d 68 fd bb 6e b8 18 bd 0c 5d 81 bd 49 77 10 3e
       -0.007733351 -0.03728526 -0.063165754 0.14108004
000020 3b c2 30 3c e6 aa f7 3b 7b 2e 1a bd 36 ae 00 3e
       0.010788496 0.0075582145 -0.037641983 0.12566456
000030 50 47 b5 bb ec b9 6a bd ff c7 1c 3d 54 30 d7 bc
       -0.0055321828 -0.057306215 0.03827667 -0.026268162
000040 ad ee 9b bd 5d 0a 97 3d 57 54 91 bd 47 d4 83 3d
       -0.07613883 0.073750235 -0.07096165 0.06436973
000050 30 b0 5f bc d0 05 52 bd 53 3d 83 3d 27 27 c5 3c
       -0.013652846 -0.051275074 0.06408181 0.02406652
000060 84 a3 59 3d 1f 4c 8a 3d 90 0b a2 bd c5 1c 12 bd
       0.053134456 0.067528 -0.079123616 -0.035671968
000070 c0 c4 71 3c ac 28 0d 3d 1f 35 11 3d 70 62 11 3b
       0.0147563815 0.034462616 0.03545105 0.0022183917
000080 7c 53 7f bd 12 9d 87 3d a8 e4 a2 bd 2c e5 7f 3d
       -0.062335476 0.06621756 -0.07953769 0.062474415
000090 8d cf 8c 3d 2a 21 29 3d d7 7b 02 3d b8 f8 cd 3b
       0.06875525 0.041291393 0.031856384 0.006285753
0000a0 50 63 a5 bb 11 a1 98 3d 01 2c 46 bd c7 83 2e bd
       -0.0050472394 0.07452596 -0.04838181 -0.04260614
0000b0 7c 1f af bd 80 25 92 bd 81 86 06 3d c5 1f a3 bd
       -0.08550927 -0.07136059 0.032843117 -0.07965044
0000c0 5f b2 db bb 72 a2 2c 3d 48 e9 70 3c 88 a0 73 bc
       -0.006704613 0.042147107 0.014704056 -0.014869817
0000d0 9c cb 36 3c 5d d5 a4 bd d4 8e e0 3c 4f dd 8e bc
       0.011156943 -0.08048508 0.027411856 -0.017439513
0000e0 18 86 68 bc 82 71 21 bd eb 52 03 bb 0b 69 8d 3d
       -0.014192127 -0.03941489 -0.0020038437 0.06904801
0000f0 fc 49 3f bd e6 6e 6d bb 88 f1 28 bc 4b aa 2e bd
       -0.046701416 -0.003622943 -0.010311492 -0.042642873
000100 02 24 8a bd 7a c2 a8 bc 80 e5 be 3a 74 80 99 bd
       -0.06745149 -0.020600546 0.0014564246 -0.074952036
000110 00 40 09 3c a8 b3 7f bc 38 15 ae bd 4c d2 9a bd
       0.008377075 -0.015606798 -0.08500141 -0.07559642
000120 2d 73 83 3d 00 92 14 39 2b 83 9d bd b0 d8 54 bc
       0.064184524 0.00014168769 -0.07691034 -0.012991115
000130 46 b9 a4 38 30 39 40 3c 6d 7f 5a 3d d2 54 3c bd
       7.854639e-05 0.011732385 0.05334418 -0.04597933
000140 8d 6a a6 36 f2 b3 10 3d 3a 0a 94 bd 66 21 b7 3c
       4.9595897e-06 0.03532786 -0.07228513 0.022354793
000150 b0 26 5e bc 77 d1 0c bd 06 4d 71 bd 98 87 a7 bd
       -0.0135590285 -0.03437945 -0.058911346 -0.08180159
000160 c7 0c 1d 3d a1 2e 85 3d 48 60 9a bc f5 11 60 bd
       0.038342264 0.065030344 -0.018844739 -0.054704625
000170 f6 e9 5a 3d 53 37 99 3d 2c 9b a8 bc bf d6 dd bc
       0.05344578 0.074812554 -0.020581804 -0.027079938
000180 8d 91 85 3d 60 52 3b bb 3e 44 c7 bb a1 79 89 3d
       0.06521902 -0.0028583035 -0.006081133 0.06712652
000190 4f 61 3d 3c d7 b7 2a bd 62 68 2d bb a6 b5 3c 3d
       0.011558845 -0.04167923 -0.0026459922 0.04607167
0001a0 9b 46 c9 3d 66 44 2b bd 56 c4 6e 3d dc 2e 9d bc
       0.0982792 -0.041813277 0.05829271 -0.019187383
0001b0 44 d8 04 3d 97 9e 4d 3d 86 6d fc bc ed 62 1f bc
       0.03243281 0.05020007 -0.030813944 -0.009728176
0001c0 40 c5 c4 ba c7 f3 24 3d 89 20 60 3d 06 1d 2e 3d
       -0.0015012398 0.040271547 0.054718528 0.042508148
0001d0 00 fb b3 bd 2f 61 38 3d e8 97 ad 3c 94 19 e4 3c
       -0.08788109 0.045014556 0.021190599 0.027844228
0001e0 5a e5 5f 3d 4f e3 93 bd 6a 24 d7 bc 54 82 82 3a
       0.054662086 -0.0722109 -0.02626248 0.0009957054
0001f0 ca 9a 4c bd a0 78 9e bd 28 6c 91 3c a8 3d 88 3d
       -0.049952306 -0.07737851 0.017751768 0.06652385
