RL/best_model.pt (torch, 460642 bytes, 24 tensors)

model.0.weight f4 [128, 10]
0.26271018 -0.28770316 -0.09207472 0.100400984 0.16140929 -0.17589886 -0.12788993 0.13892117
-0.032307893 -0.041045606 0.039963394 -0.14975591 -0.13604347 -0.2042269 -0.2821538 -0.0374434
0.06601146 -0.046540022 0.123942316 -0.18725343 -0.2232649 0.097094804 0.2846788 -0.11421184
0.232209 0.06370443 -0.2729059 -0.032777876 0.17828527 0.1934379 0.08801913 -0.03123191
0.19642785 -0.023879796 0.15314558 -0.070017666 -0.15548785 0.06835079 0.19777933 0.2882494
-0.044592172 0.25179026 0.25909194 -0.08484924 -0.1288205 -0.028441787 -0.21411619 -0.22336574
0.025297284 -0.16659442 -0.09061153 -0.2886377 0.19637337 0.16381326 -0.2866531 -0.24347305
-0.27069747 0.14271921 0.029905945 -0.13481718 -0.2604695 -0.0029257536 -0.041523784 0.104996055
0.31072715 -0.042001665 0.28618285 0.016900003 -0.0749353 0.12623525 0.030083477 0.17202953
-0.31427214 0.0060507953 0.27786157 0.19956067 -0.08371802 0.2216303 -0.1110121 -0.162737
0.30957726 0.11385566 -0.24995786 0.28464988 -0.05123496 0.105356365 0.29564396 0.18572727
-0.2042171 -0.051499933 0.106143236 -0.31059018 -0.2049024 -0.06300533 -0.26828614 -0.0149769485
0.16631198 -0.26258174 0.13329402 -0.24352124 -0.18573935 0.18805769 -0.1505362 0.20680764
-0.20272085 0.0061383545 0.26784143 0.1956183 0.14160627 -0.019226938 0.09803134 0.07570511
0.02709639 -0.22845012 0.29605266 0.11384764 0.31611922 -0.23591626 0.21255872 -0.090173036
0.14072919 0.04638326 -0.16514285 -0.05311975 -0.18072358 0.20479432 0.062690765 0.27003708
0.31589416 -0.31481072 0.2008461 -0.24660133 -0.24607247 -0.3156274 -0.16269557 -0.20308468
-0.0763295 -0.22678593 0.20662835 0.25298885 0.056071848 0.18470404 -0.02318576 -0.1994049
-0.14663294 0.15551472 0.24583933 -0.07277238 -0.2517497 -0.115674585 0.14569184 -0.017827451
-0.11296731 0.15279299 0.055486232 -0.22011366 0.1967102 -0.25386316 0.30177543 -0.28622094
-0.2556373 -0.05178544 0.025405347 0.014861107 0.19431409 0.006478578 -0.225983 -0.2746679
-0.09923279 0.17900926 -0.18886831 -0.019293785 0.2979727 0.01863712 -0.12009443 -0.035336524
0.04398659 -0.047754288 -0.24756856 -0.30297625 -0.26463273 0.042309105 -0.30007505 0.27864447
0.012817591 -0.27305767 0.15303189 0.23248181 0.2581189 0.0072425604 0.23247245 -0.0127568245
-0.25890946 -0.30179805 0.3136542 -0.080924764 -0.0049384832 -0.29040855 0.082307845 0.2450361
-0.088976756 -0.14424773 0.04341516 -0.25745508 -0.076575965 -0.28046453 -0.09920061 0.0049877763
0.28001335 -0.028548688 0.0039696395 0.005227357 -0.19675718 0.1719484 0.27199093 0.28834566
0.30933276 -0.04167393 -0.23826706 0.09669444 0.2620739 0.24175891 0.26299223 -0.080456644
0.22853854 -0.08452897 0.035549223 0.3056439 -0.0578129 0.24005875 0.23215047 -0.14009906
0.081192404 -0.17033398 -0.17335455 0.24314663 -0.25107923 0.28297868 0.1386098 0.30769077
0.30963293 -0.26210877 0.20125201 -0.08027317 -0.21844281 -0.20150611 -0.018265158 -0.16790454
-0.10800865 -0.26765376 -0.037310213 0.31163535 0.17815134 0.018694311 -0.2698581 -0.05120516
00000000: f381 863e d44d 93be ac91 bcbd 089f cd3d
00000010: 7a48 253e d51e 34be 94f5 02be 5a41 0e3e
00000020: 4855 04bd 701f 28bd a8b0 233d 9d59 19be
00000030: fb4e 0bbe db20 51be 7676 90be 405e 19bd
00000040: 0431 873d c0a0 3ebd 78d5 fd3d 5dbf 3fbe
00000050: 8e9f 64be a4d9 c63d 6bc1 913e e6e7 e9bd
00000060: 32c8 6d3e 7877 823d 52ba 8bbe 1842 06bd
00000070: 6a90 363e 9614 463e 6043 b43d 10da ffbc
00000080: 6224 493e 909f c3bc 32d2 1c3e 6c65 8fbd
00000090: 3538 1fbe 80fb 8b3d aa86 4a3e 6d95 933e
000000a0: 48a6 36bd a7ea 803e b3a7 843e 70c5 adbd
000000b0: 85e9 03be c0fe e8bc 4641 5bbe fdb9 64be
000000c0: 403c cf3c ba97 2abe 8a92 b9bd 52c8 93be
000000d0: 1a16 493e aabe 273e 32c4 92be 0051 79be
000000e0: dc98 8abe fc24 123e 50fd f43c 840d 0abe
000000f0: 425c 85be 00be 3fbb d814 2abd 2c08 d73d
00000100: a117 9f3e f009 2cbd 8f86 923e e071 8a3c
00000110: ae77 99bd d043 013e a071 f63c 8228 303e
00000120: 47e8 a0be c045 c63b df43 8e3e a259 4c3e
00000130: 5a74 abbd 0ef3 623e 505a e3bd 87a4 26be
00000140: e980 9e3e 282d e93d f4f4 7fbe a1bd 913e
00000150: c0db 51bd 14c5 d73d a55e 973e 4a2f 3e3e
00000160: 4a1e 51be 98f1 52bd a061 d93d ad05 9fbe
00000170: efd1 51be f008 81bd cd5c 89be e061 75bc
00000180: b04d 2a3e 1d71 86be 3a7e 083e a25d 79be
00000190: 7532 3ebe 3292 403e 2926 1abe 62c5 533e
000001a0: 0e96 4fbe 4024 c93b 8322 893e 2a50 483e
000001b0: 3c01 113e d081 9dbc a8c4 c83d 480b 9b3d
000001c0: 40f9 dd3c d4ee 69be 3794 973e f428 e93d
000001d0: 61da a13e 0894 71be fea8 593e a4ac b8bd
000001e0: 501b 103e 60fc 3d3d 351b 29be 1894 59bd
000001f0: 9a0f 39be 9ab5 513e 0464 803d 4d42 8a3e
00000200: e1bc a13e df2e a1be 9aaa 4d3e 0f85 7cbe
00000210: 6cfa 7bbe ea99 a1be ab99 26be 6ef5 4fbe
00000220: a452 9cbd 923a 68be 6296 533e c187 813e
00000230: 98ab 653d 0e23 3d3e 10f0 bdbc cc30 4cbe
00000240: f226 16be 403f 1f3e 4ebd 7b3e b009 95bd
00000250: 56e5 80be cce6 ecbd 3e30 153e e00a 92bc
00000260: 685b e7bd c475 1c3e 8845 633d 7a65 61be
00000270: 666e 493e 5afa 81be 4f82 9a3e 8d8b 92be
00000280: e4e2 82be f81c 54bd e01e d03c 007c 733c
00000290: 46fa 463e 404a d43b 1668 67be 45a1 8cbe
000002a0: 903a cbbd 344e 373e b266 41be 000e 9ebc
000002b0: e18f 983e e0ac 983c 12f4 f5bd 08bd 10bd
000002c0: 482b 343d 009a 43bd 9d82 7dbe b41f 9bbe
000002d0: f17d 87be 504c 2d3d 70a3 99be 7daa 8e3e
000002e0: e000 523c 37ce 8bbe 64b4 1c3e b60f 6e3e
000002f0: 2928 843e 0053 ed3b 420d 6e3e 0002 51bc
00000300: c88f 84be 4685 9abe 4997 a03e e2bb a5bd
00000310: 00d3 a1bb 6eb0 94be 0491 a83d beea 7a3e
00000320: 7239 b6bd adb5 13be 18d4 313d 27d1 83be
00000330: dcd3 9cbd 0c99 8fbe b029 cbbd 8070 a33b
00000340: e95d 8f3e f0de e9bc c013 823b 404a ab3b
00000350: b77a 49be 3e13 303e 6542 8b3e 0ba2 933e
00000360: dd60 9e3e 48b2 2abd 48fc 73be bc07 c63d
00000370: 8d2e 863e a68f 773e eba6 863e 74c6 a4bd
00000380: 0206 6a3e 861d adbd 109c 113d 5b7d 9c3e
00000390: 38cd 6cbd f6d1 753e dab8 6d3e 2176 0fbe
000003a0: 3448 a63d 086c 2ebe db83 31be 6efb 783e
000003b0: 758d 80be 95e2 903e baef 0d3e a589 9d3e
000003c0: 3588 9e3e 1f33 86be 0215 4e3e 4266 a4bd
000003d0: 79af 5fbe 9e57 4ebe d0a0 95bc 2bef 2bbe
000003e0: a433 ddbd ea09 89be 98d2 18bd ab8e 9f3e
000003f0: 4e6d 363e d024 993c d72a 8abe 80bc 51bd

model.0.bias f4 [128]
0.13458624 -0.03899023 -0.12292984 0.31477338 0.027544556 0.26208407 -0.004472977 0.022309786
-0.25092423 0.08822117 -0.24530631 -0.08895029 0.097449206 -0.26552102 0.110392675 -0.15113069
-0.07049446 0.00923971 -0.23036206 -0.102838844 0.29846388 -0.067314684 0.17660913 -0.31544784
0.09044008 0.2586915 -0.009189917 -0.009087235 -0.17914161 -0.2972769 0.007141326 -0.23406954
0.17072965 -0.2677689 0.17523178 0.03812502 0.01907524 0.12886924 0.11768425 -0.2743408
0.14152749 -0.27554214 -0.08134261 -0.007214129 -0.19376165 0.19756842 -0.009751294 0.12483026
0.21010263 -0.051838517 0.17081945 0.056180023 0.16811733 -0.27839208 -0.22495472 -0.14420347
-0.18090084 -0.0031819046 0.30882904 -0.17860503 0.24449432 -0.04964304 -0.14212771 -0.035232782
-0.0052082557 0.012832813 0.16093953 0.05415533 0.13254835 -0.13902612 -0.18489072 -0.19636041
-0.162914 -0.20183885 0.18108976 -0.2331305 -0.29678506 -0.27291837 -0.07800153 0.26519915
0.14385062 -0.044219285 -0.11598784 -0.2955066 0.0017735001 -0.060601294 -0.1511599 -0.23069349
-0.15498644 0.17799991 0.09822898 0.215848 0.114764474 -0.040277183 -0.25679776 -0.31185845
0.28367484 -0.0030459787 0.11009783 -0.28210425 -0.09432973 -0.04262969 0.24238685 0.040127505
0.10352635 -0.19636708 0.23253651 0.09735165 0.24571659 0.26863745 -0.028557658 0.23278435
-0.06153804 -0.053245157 0.03937742 -0.03533417 0.06674471 -0.0863629 -0.15616094 -0.0016222704
0.015287193 -0.08342436 -0.0416286 0.24936543 0.30174905 0.094682015 0.034594093 0.14373545
00000000: fad0 093e 38b4 1fbd a4c2 fbbd fa29 a13e
00000010: 1fa5 e13c e22f 863e 0d92 92bb 03c3 b63c
00000020: 2479 80be 4dad b43d 9431 7bbe 922b b6bd
00000030: 7393 c73d 5ff2 87be 8e15 e23d 01c2 1abe
00000040: 665f 90bd 2762 173c 08e4 6bbe 2c9d d2bd
00000050: 42d0 983e 48dc 89bd 06d9 343e 6182 a1be
00000060: a638 b93d 3673 843e 4e91 16bc a0e2 14bc
00000070: e670 37be ae34 98be c901 ea3b edaf 6fbe
00000080: c1d3 2e3e 0119 89be f66f 333e fb28 1c3d
00000090: ad43 9c3c 4cf6 033e 7104 f13d 6676 8cbe
000000a0: 95ec 103e dc13 8dbe f496 a6bd 8064 ecbb
000000b0: 7469 46be 604f 4a3e e4c3 1fbc 02a7 ff3d
000000c0: 2525 573e a054 54bd 4beb 2e3e 061d 663d
000000d0: f326 2c3e 6889 8ebe 885a 66be 13aa 13be
000000e0: 123e 39be 8087 50bb d71e 9e3e 3de4 36be
000000f0: b85c 7a3e 8056 4bbd ed89 11be 4050 10bd
00000100: 04aa aabb b840 523c 55cd 243e fbd1 5d3d
00000110: c1ba 073e dd5c 0ebe fe53 3dbe b412 49be
00000120: edd2 26be d8ae 4ebe 986f 393e c3b9 6ebe
00000130: 36f4 97be f5bb 8bbe 44bf 9fbd 2fc8 873e
00000140: 944d 133e 481f 35bd 088b edbd a44c 97be
00000150: ca74 e83a 1039 78bd a9c9 1abe ea3a 6cbe
00000160: c4b4 1ebe 9c45 363e 472c c93d 4207 5d3e
00000170: a309 eb3d b0f9 24bd ff7a 83be e9ab 9fbe
00000180: d43d 913e 0b9f 47bb f97a e13d f86f 90be
00000190: f22f c1bd 789c 2ebd 4234 783e bd5c 243d
000001a0: 9f05 d43d 7414 49be 0d1e 6e3e 4d60 c73d
000001b0: 219d 7b3e d98a 893e c0f1 e9bc 055f 6e3e
000001c0: 500f 7cbd 9817 5abd 384a 213d 90ba 10bd
000001d0: 73b1 883d 08df b0bd a7e8 1fbe 5da2 d4ba
000001e0: 2277 7a3c 64da aabd c082 2abd a759 7f3e
000001f0: da7e 9a3e a5e8 c13d 89b2 0d3d 632f 133e

model.2.weight f4 [128, 128]
0.041925542 -0.05386204 0.014842764 0.050162323 0.0014747605 0.05565103 0.05661101 0.044862427
0.069386475 -0.0766868 0.080885716 -0.017499909 -0.06963583 0.05661694 -0.015814729 -0.06215948
-0.053903636 0.01402697 0.08003881 0.0110650435 -0.07654671 -0.034406833 -0.029882103 0.05501335
0.0069930255 0.0030577034 0.031864293 0.038493626 0.062228225 -0.067712545 -0.06467612 -0.0054512173
0.08247382 -0.068116195 0.00826586 -0.070148975 -0.011137024 0.02958285 0.07348675 -0.0055484846
0.052474134 0.050637104 0.007046044 -0.08558547 0.024356507 -0.043118797 -0.059094116 -0.07959308
-0.05745095 0.019332029 -0.07426043 0.040587954 -0.06650297 -0.023246624 0.021979213 -0.010386102
-0.028620627 -0.023029722 0.030713454 -0.013167389 -0.013932303 -0.05314804 0.035249755 0.034768328
0.046285518 0.014515512 0.04854857 0.05750958 -0.01083032 0.035950862 -0.0016776994 -0.045307882
-0.0010994524 -0.01287815 0.06966781 -0.013051689 -0.055941604 -0.017236322 -0.010603987 -0.045342054
-0.015132807 0.036610164 0.023214579 0.045432054 -0.05525553 0.06719261 -0.0011415482 -0.06983022
0.017329805 0.064360656 -0.08154371 0.0076241344 -0.0011087656 0.0227964 0.041705094 -0.0007361397
-0.015569888 0.016772904 -0.06551373 0.032812364 0.08556148 0.05808472 -0.07120605 0.0006422773
0.07199975 -0.029486947 -0.0065466464 0.07027026 -0.065387726 0.0367864 0.036865376 -0.07815171
0.06106151 0.07396852 0.021949708 0.029756263 0.018799104 0.029196322 0.025035694 0.07069441
-0.007840335 -0.017079271 0.0339157 -0.025323614 -0.05113799 -0.05635377 0.0030284375 -0.03294145
0.058832385 -0.07632658 -0.03886149 0.08373293 0.032077912 0.03891963 0.07615702 0.081341945
-0.030030578 0.03310715 -0.010690451 -0.000107213855 0.06214387 0.08098861 -0.018934889 -0.08198256
-0.05659801 -0.0018657465 -0.03999187 -0.061130516 0.03445089 0.08458678 -0.0403051 -0.07487382
0.045934845 -0.046808273 -0.039875995 0.015282899 0.04059387 -0.07045807 -0.05688242 0.078242026
0.04745737 0.026871622 0.023819165 -0.017433763 -0.05192555 0.06933746 0.10569648 0.074093394
0.0705175 -0.024394162 0.058887713 0.07104423 0.04002241 0.06327386 -0.035932146 0.054605257
0.0075821667 0.039639883 -0.02810232 0.019215994 0.024602117 -0.033494364 -0.009186424 0.077380545
0.042901568 -0.07296251 0.08242493 0.04376156 0.08914343 0.075785436 -0.0011089817 0.039542012
0.00045205292 0.07939326 0.00056392956 0.09145469 0.085388236 0.08023206 0.032408036 0.011041358
-0.085745454 -0.061234437 -0.03997059 0.012753107 0.027596973 -0.05591751 0.0710196 -0.026136931
0.0900356 -0.023046158 0.084040485 -0.019607686 -0.044983357 -0.033255063 -0.022009209 -0.037217923
-0.01673533 0.088438235 -0.050732896 -0.06268539 -0.067145504 -0.075518616 -0.05100719 0.027744725
0.009267627 -0.0731741 -0.013598371 0.041349 -0.04147682 0.045638464 0.047072824 0.08748827
-0.030665673 0.0371098 -0.048630506 0.032360498 0.037349097 0.10653432 0.010823511 0.081576504
-0.005206339 -0.054255363 0.06316747 0.06910852 0.07335885 -0.05190578 0.08399659 0.06263207
0.051240806 -0.031644 0.082345344 -0.0477737 0.08156742 -0.009885969 0.0048896456 -0.06390948
00000000: 1eba 2b3d 719e 5cbd 102f 733c 0277 4d3d
00000010: c04c c13a 56f2 633d f2e0 673d aac1 373d
00000020: 7f1a 8e3d f80d 9dbd 69a7 a53d f85b 8fbc
00000030: 3b9d 8ebd 2ae7 673d e48d 81bc f09a 7ebd
00000040: 0fca 5cbd 60d1 653c 63eb a33d 284a 353c
00000050: 86c4 9cbd 2eee 0cbd 50cb f4bc ae55 613d
00000060: c025 e53b c063 483b 2284 023d 7eab 1d3d
00000070: 06e3 7e3d e0ac 8abd ea74 84bd 20a0 b2bb
00000080: 09e8 a83d 8180 8bbd 886d 073c 44aa 8fbd
00000090: 1078 36bc bc57 f23c 3980 963d 10d0 b5bb
000000a0: 1eef 563d da68 4f3d 80e2 e63b 6f47 afbd
000000b0: 4c87 c73c 569d 30bd ac0c 72bd b201 a3bd
000000c0: b051 6bbd 345e 9e3c da15 98bd 8e3f 263d
000000d0: b632 88bd b46f bebc c00d b43c 782a 2abc
000000e0: ce75 eabc d4a8 bcbc c89a fb3c 08bc 57bc
000000f0: 5044 64bc c2b1 59bd 0c62 103d 3c69 0e3d
00000100: e295 3d3d 78d2 6d3c deda 463d 2a8f 6b3d
00000110: a871 31bc 3641 133d 40e6 dbba c294 39bd
00000120: 801b 90ba e0fe 52bc ffad 8e3d c0d6 55bc
00000130: 0623 65bd 3033 8dbc 58bc 2dbc 97b8 39bd
00000140: 98ef 77bc 8af4 153d 802c be3c f616 3a3d
00000150: 9f53 62bd 479c 893d 00a0 95ba 2503 8fbd
00000160: 3cf7 8d3c 85cf 833d 6300 a7bd e0d3 f93b
00000170: 0054 91ba 84bf ba3c f6d2 2a3d 80f9 40ba
00000180: d818 7fbc 5467 893c 102c 86bd 4266 063d
00000190: db3a af3d 3eea 6d3d 7ad4 91bd 805e 283a
000001a0: 9b74 933d 9c8e f1bc 4085 d6bb dbe9 8f3d
000001b0: 00ea 85bd 56ad 163d 2600 173d 010e a0bd
000001c0: a21b 7a3d cf7c 973d e0cf b33c 68c3 f33c
000001d0: 9400 9a3c 202d ef3c a817 cd3c 3bc8 903d
000001e0: c074 00bc d4e9 8bbc 30eb 0a3d 7873 cfbc
000001f0: 1276 51bd 36d3 66bd c078 463b 9ded 06bd
00000200: 3afa 703d 1c51 9cbd 3a2d 1fbd 2c7c ab3d
00000210: 2164 033d 316a 1f3d 36f8 9b3d 9b96 a63d
00000220: b002 f6bc 5d9b 073d 0027 2fbc 00d8 e0b8
00000230: 928a 7e3d 5bdd a53d 571d 9bbc 79e6 a7bd
00000240: 51d3 67bd 108c f4ba 84ce 23bd fe63 7abd
00000250: 601c 0d3d d53b ad3d f616 25bd 7257 99bd
00000260: 2d26 3c3d 08ba 3fbd 0355 23bd 2065 7a3c
00000270: c245 263d 524c 90bd 8afd 68bd 5b3d a03d
00000280: a962 423d e021 dc3c 6920 c33c 40d1 8ebc
00000290: e3af 54bd cc00 8e3d 6577 d83d 47be 973d
000002a0: 7b6b 903d 44d6 c7bc 3e34 713d a37f 913d
000002b0: 8aee 233d ba95 813d 962d 13bd c3a9 5f3d
000002c0: d373 f83b 6e5d 223d d636 e6bc dc6a 9d3c
000002d0: 618a c93c 6331 09bd a882 16bc b179 9e3d
000002e0: 8eb9 2f3d 5e6d 95bd 67ce a83d 523f 333d
000002f0: d590 b63d 6535 9b3d 405b 91ba cef6 213d
00000300: 8401 ed39 ef98 a23d acd4 133a 994c bb3d
00000310: 07e0 ae3d b550 a43d 4abe 043d d0e6 343c
00000320: 509b afbd f6d0 7abd 34b8 23bd 68f2 503c
00000330: 0c13 e23c c209 65bd b972 913d 1e1d d6bc
00000340: 9664 b83d 4ccb bcbc 6b1d ac3d 4ca0 a0bc
00000350: 7840 38bd 7636 08bd a84c b4bc d271 18bd
00000360: 8818 89bc 1b1f b53d 4ccd 4fbd 3361 80bd
00000370: 9583 89bd 81a9 9abd eaec 50bd e848 e33c
00000380: 3fd7 173c 4ddc 95bd b4cb 5ebc 925d 293d
00000390: 99e3 29bd 66ef 3a3d 6fcf 403d 0d2d b33d
000003a0: 9436 fbbc 7200 183d c830 47bd 718c 043d
000003b0: 5efb 183d aa2e da3d 1855 313c 9511 a73d
000003c0: f099 aabb df3a 5ebd f25d 813d c588 8d3d
000003d0: 2a3d 963d 289b 54bd 6706 ac3d 3e45 803d
000003e0: e1e1 513d 249d 01bd ada4 a83d 5bae 43bd
000003f0: d20c a73d c2f8 21bc 5239 a03b f9e2 82bd

model.2.bias f4 [128]
0.051865317 0.044824645 -0.018369325 0.048443493 -0.0008574277 -0.033576246 -0.059502352 -0.003237471
-0.083362326 -0.0062280074 0.004750491 0.011846572 -0.010806441 -0.018584263 0.09075495 -0.01581779
0.017741349 -0.054905288 0.098753855 -0.06704548 -0.07586287 -0.023706743 0.0967847 0.01945524
-0.0283712 0.045254543 0.055176266 0.044567652 -0.010760993 0.07060522 -0.08271723 0.012956808
0.04718045 -0.078985065 0.054802313 0.016862128 0.048617132 0.011944488 0.02876532 0.0005045831
0.00485246 -0.013992988 -0.020112403 0.04563146 -0.003443131 -0.090952575 -0.043658055 0.056911938
0.100135 0.059769224 -0.084395915 0.028579742 0.0011816551 -0.021321075 0.02854657 -0.02637282
-0.057650186 -0.08785306 -0.020066485 0.08342877 -0.0325547 -0.040072262 -0.042711362 -0.027183305
-0.048938505 -0.0137379365 -0.0754396 0.041892305 -0.063292414 -0.045363206 -0.050685145 -0.015082575
0.020864563 0.02215501 -0.06401304 -0.012643244 -0.026427507 -0.04966694 0.06601163 -0.0373951
-0.07379754 -0.07029439 0.040694427 -0.057870008 0.01903455 -0.022235226 0.041513976 0.04291722
0.0772141 -0.08116383 -0.055242315 -0.024587322 -0.060358297 -0.06471917 -0.073797956 0.0010659577
0.006042767 0.04567659 0.056040116 -0.07228004 -0.044354722 -0.0651482 -0.09026362 -0.006741233
-0.000349863 -0.057534494 0.01130946 0.08313445 0.0518722 0.059650805 0.07085782 0.018451711
-0.06648781 -0.06509998 0.02391726 -0.08204776 -0.0040575084 -0.085765705 -0.07604309 -0.035680216
0.016548589 0.088781185 -0.04387456 0.06780122 -0.08187936 0.03444408 0.055271976 -0.0376349
00000000: ba70 543d 0c9a 373d 447b 96bc af6c 463d
00000010: 00c5 60ba 3f87 09bd bdb8 73bd c02b 54bb
00000020: deb9 aabd 5014 ccbb 02aa 9b3b 2018 423c
00000030: 800d 31bc 063e 98bc bbdd b93d 4f94 81bc
00000040: 4e56 913c 5ee4 60bd 763f ca3d 244f 89bd
00000050: fe5d 9bbd a534 c2bc 0f37 c63d 9860 9f3c
00000060: b86a e8bc d45c 393d 8200 623d 928c 363d
00000070: e04e 30bc 7899 903d a767 a9bd cb48 543c
00000080: 4a40 413d ecc2 a1bd 6478 603d 7222 8a3c
00000090: c222 473d d0b2 433c 40a5 eb3c 0046 043a
000000a0: 6301 9f3b d842 65bc c4c2 a4bc 0ee8 3a3d
000000b0: 27a6 61bb 5845 babd cad2 32bd 7e1c 693d
000000c0: 9413 cd3d 93d0 743d c4d7 acbd 1020 ea3c
000000d0: c4e1 9a3a 89a9 aebc 7fda e93c d00b d8bc
000000e0: 9a22 6cbd 4eec b3bd 7862 a4bc b4dc aa3d
000000f0: 1458 05bd d022 24bd 1cf2 2ebd 86af debc
00000100: be73 48bd 1515 61bc 1480 9abd 4497 2b3d
00000110: 749f 81bd c5ce 39bd 3a9b 4fbd e81c 77bc
00000120: 29ec aa3c 6c7e b53c 4519 83bd 9c25 4fbc
00000130: 807e d8bc 906f 4bbd 1b31 873d 9b2b 19bd
00000140: 2a23 97bd 81f6 8fbd 33af 263d 1a09 6dbd
00000150: 58ee 9b3c a626 b6bc 8f0a 2a3d f8c9 2f3d
00000160: 6d22 9e3d 3939 a6bd c445 62bd 5a6b c9bc
00000170: 433a 77bd 7c8b 84bd 6223 97bd 9bb7 8b3a
00000180: 6702 c63b 6017 3b3d 528a 653d 8f07 94bd
00000190: 4cad 35bd 6b6c 85bd 22dc b8bd 90e5 dcbb
000001a0: d16d b7b9 4aa9 6bbd 504b 393c 6542 aa3d
000001b0: f277 543d 6754 743d e81d 913d 0b28 973c
000001c0: c32a 88bd 2353 85bd 21ee c33c a808 a8bd
000001d0: d9f4 84bb eea5 afbd 7bbc 9bbd 6b25 12bd
000001e0: e890 873c e9d2 b53d d0b5 33bd 5edb 8a3d
000001f0: 5eb0 a7bd 3c15 0d3d de64 623d 0e27 1abd

model.4.weight f4 [5, 128]
-0.08570493 0.011658219 -0.0026477277 -0.067574844 -0.07837168 -0.021529058 0.032456793 -0.016974665
-0.01817783 0.02890452 -0.056652475 0.08108757 -0.009866029 -0.017901111 0.09019148 0.02987635
-0.056546886 -0.084334694 -0.03433529 0.022853203 0.07966929 -0.046375334 0.028083645 0.053661026
0.08456115 -0.03040836 0.008828931 0.037740566 0.024558052 -0.080081746 -0.051852487 -0.063425414
0.028531108 0.003388062 0.0048113996 -0.012920843 0.09131258 0.044168435 0.047402784 -0.03528199
0.073956676 0.060085766 0.020503437 -0.043239757 0.06345768 0.06318278 0.024569929 -0.010974757
0.033298012 0.041978832 -0.08006984 0.058508154 -0.06164777 0.018792666 0.069510855 -0.0076340884
0.05605703 0.05851493 -0.016186573 0.020679563 0.0028879344 0.05298797 -0.06974824 0.05935961
0.005792357 -0.016162584 -0.03817519 -0.07712191 0.022617891 0.05765369 0.071330585 0.029681824
-0.01113923 0.060790904 -0.003110163 -0.046204653 0.031008951 -0.06618093 0.0027658204 0.0786452
0.030348144 0.04712721 -0.00609917 0.019963527 0.016197853 0.011607101 -0.01334576 -0.08044128
0.095010914 -0.013491325 0.03969317 0.040731553 0.00451526 0.075622536 0.052165754 0.044611055
0.005267855 0.08101558 0.0137415975 -0.017663568 -0.004709825 -0.01607833 0.027462574 -0.004622549
-0.08381724 -0.0069616884 0.039629027 0.06715537 0.08930715 -0.011715982 -0.034569856 -0.0681057
-0.06446528 -0.0073179975 -0.027277542 0.055398226 0.008966957 0.016270928 0.05099476 0.054156445
0.04420454 0.082345895 0.045333363 0.03724226 0.022076942 0.065541975 0.011427169 0.08409905
-0.047602832 -0.060046114 0.080065794 0.009669518 0.053856023 -0.04215073 0.077999815 -0.04103372
-0.026687331 -0.07801445 -0.026535708 0.083629556 -0.025976818 -0.019790392 0.114184886 -0.09307812
-0.048375864 -0.073798396 0.06313473 0.07662218 0.017864205 0.02297393 0.10531665 0.083201595
0.036389355 -0.045821495 -0.039541025 -0.08375491 -0.017979942 0.025049062 -0.010304093 -0.033588067
-0.0288141 -0.031592127 -0.078210175 0.0008898831 -0.03595758 0.05312323 0.07386256 -0.012283951
0.08104056 -0.0018115565 -0.08247123 -0.0402131 0.0014590895 0.024151731 0.06892625 0.044106103
0.0625442 0.063650906 0.060517274 0.009808888 0.06289894 0.05115409 -0.033293176 -0.03480901
-0.05135293 0.042421825 0.008245908 0.02752669 -0.052758772 -0.06268279 0.030123867 0.0004017028
0.054977827 -0.065622665 0.054681696 0.035552286 -0.019812137 -0.06064735 -0.0025836676 -0.008625202
0.05554626 -0.03993496 -0.034381427 0.07174891 -0.0026423782 -0.06885669 0.059635334 0.033812743
-0.06789905 -0.029535245 -0.00053846 0.0179065 -0.04813347 -0.0133210495 -0.030533895 0.02502764
-0.01576475 0.046470933 0.012910254 -0.04022448 0.0008727082 0.06664278 -0.053733557 -0.05720641
0.016944671 -0.024707863 0.026515149 -0.0794233 -0.053638577 -0.033119988 0.02302147 -0.0048913285
-0.0131019205 -0.043788794 -0.10666281 0.0505888 -0.079500556 -0.0055912673 0.027237289 0.004501096
0.08311086 -0.021039896 0.041390914 -0.080209695 -0.031887915 0.06356246 -0.007862128 0.06823131
0.050266944 0.068252414 0.041189335 0.038595714 0.056630902 0.040502943 0.0017251233 0.02007933
00000000: 1186 afbd 1d02 3f3c 8085 2dbb ae64 8abd
00000010: 5581 a0bd b55d b0bc 6af1 043d 740e 8bbc
00000020: ace9 94bc 2cc9 ec3c 6d0c 68bd 3d11 a63d
00000030: 20a5 21bc 5aa5 92bc 50b6 b83d 3fbf f43c
00000040: b59d 67bd abb7 acbd 29a3 0cbd a436 bb3c
00000050: a729 a33d 10f4 3dbd ac0f e63c aacb 5b3d
00000060: 652e ad3d f41a f9bc 38a7 103c da95 1a3d
00000070: f82d c93c e601 a4bd 4663 54bd 2fe5 81bd
00000080: 12ba e93c 3f0a 5e3b f2a8 9d3b f2b1 53bc
00000090: 1702 bb3d f6e9 343d 6c29 423d d983 10bd
000000a0: 9976 973d 7e1c 763d d3f6 a73c 2c1c 31bd
000000b0: 1af6 813d f965 813d e046 c93c 78cf 33bc
000000c0: 7f63 083d fff1 2b3d a8fb a3bd 3fa6 6f3d
000000d0: 5f82 7cbd 14f3 993c b55b 8e3d 6027 fabb
000000e0: 0e9c 653d 5aad 6f3d b499 84bc 3068 a93c
000000f0: 8043 3d3b ea09 593d 2ad8 8ebd 1023 733d
00000100: d0cd bd3b 6567 84bc 975d 1cbd 18f2 9dbd
00000110: 2849 b93c 4726 6c3d c515 923d 4c27 f33c
00000120: 5181 36bc e2ff 783d e0d3 4bbb 1741 3dbd
00000130: 7c06 fe3c de89 87bd c442 353b bc10 a13d
00000140: ac9c f83c 7608 413d 8cdb c7bb 8d8a a33c
00000150: 5cb1 843c b62b 3e3c 2da8 5abc 66be a4bd
00000160: 1595 c23d b80a 5dbc 4e95 223d 21d6 263d
00000170: bff4 933b fddf 9a3d c2ab 553d 15ba 363d
00000180: f89d ac3b 7feb a53d 7024 613c 30b3 90bc
00000190: e054 9abb b4b6 83bc 31f9 e03c c078 97bb
000001a0: 60a8 abbd e01e e4bb 0c52 223d c188 893d
000001b0: abe6 b63d 64f4 3fbc 1f99 0dbd 007b 8bbd
000001c0: 5f06 84bd d0cb efbb 2775 dfbc 40e9 623d
000001d0: 25ea 123c 9c4a 853c e2df 503d 26d3 5d3d
000001e0: d20f 353d f7a4 a83d 7aaf 393d 578b 183d
000001f0: b4da b43c df3a 863d 0539 3b3c 1f3c ac3d
00000200: 30fb 42bd eaf2 75bd 89f9 a33d e66c 1e3c
00000210: 2298 5c3d 3ea6 2cbd 5ebe 9f3d f912 28bd
00000220: 649f dabc 0ac6 9fbd 6a61 d9bc f945 ab3d
00000230: 56cd d4bc 761f a2bc c4d9 e93d be9f bebd
00000240: c525 46bd 9d23 97bd c84c 813d 17ec 9c3d
00000250: f457 923c d333 bc3c 41b0 d73d 9965 aa3d
00000260: 010d 153d 52af 3bbd c5f5 21bd b287 abbd
00000270: ac4a 93bc b133 cd3c 80d2 28bc a493 09bd
00000280: 8c0b ecbc bf66 01bd a82c a0bd 0b47 693a
00000290: 4148 13bd be97 593d 4145 973d a042 49bc
000002a0: 98f8 a53d c071 edba ade6 a8bd 7eb6 24bd
000002b0: eb3e bf3a dad9 c53c 3529 8d3d 9aa8 343d
000002c0: 2c17 803d 685b 823d f6e0 773d 75b5 203c
000002d0: 29d1 803d f386 513d 6d5e 08bd e493 0ebd
000002e0: 7357 52bd 82c2 2d3d d819 073c a77f e13c
000002f0: 9519 58bd d65f 80bd 54c6 f63c a39b d239
00000300: 6e30 613d 2d65 86bd eaf9 5f3d 469f 113d
00000310: 104d a2bc 5b69 78bd c052 29bb b850 0dbc
00000320: 7a84 633d d792 23bd 8ad3 0cbd 18f1 923d
00000330: c02b 2dbb bc04 8dbd 2e44 743d 3b7f 0a3d
00000340: a80e 8bbd e6f3 f1bc 7027 0dba a7b0 923c
00000350: 9a27 45bd 8840 5abc 3822 fabc c406 cd3c
00000360: 1425 81bc 4e58 3e3d 8885 533c 6dc2 24bd
00000370: 75c6 643a 037c 883d b817 5cbd 4551 6abd
00000380: 8dcf 8a3c 2568 cabc 4c36 d93c afa8 a2bd
00000390: 20b4 5bbd d3a8 07bd 8697 bc3c 7047 a0bb
000003a0: 70a9 56bc e15b 33bd 0872 dabd 3436 4f3d
000003b0: 30d1 a2bd f336 b7bb bc20 df3c ee7d 933b
000003c0: 0736 aa3d dc5b acbc 8589 293d fb44 a4bd
000003d0: e79c 02bd 092d 823d 28d0 00bc dbbc 8b3d
000003e0: b6e4 4d3d ecc7 8b3d 26b6 283d 8a16 1e3d
000003f0: cef5 673d 6ae6 253d 881d e23a 687d a43c

model.4.bias f4 [5]
0.11811717 0.095197685 0.09971858 0.12409408 -0.0014005856
00000000: 6ae7 f13d 01f7 c23d 4139 cc3d 0925 fe3d
00000010: db93 b7ba

model.0.weight f4 [128, 10]
0.26271018 -0.28770316 -0.09207472 0.100400984 0.16140929 -0.17589886 -0.12788993 0.13892117
-0.032307893 -0.041045606 0.039963394 -0.14975591 -0.13604347 -0.2042269 -0.2821538 -0.0374434
0.06601146 -0.046540022 0.123942316 -0.18725343 -0.2232649 0.097094804 0.2846788 -0.11421184
0.232209 0.06370443 -0.2729059 -0.032777876 0.17828527 0.1934379 0.08801913 -0.03123191
0.19642785 -0.023879796 0.15314558 -0.070017666 -0.15548785 0.06835079 0.19777933 0.2882494
-0.044592172 0.25179026 0.25909194 -0.08484924 -0.1288205 -0.028441787 -0.21411619 -0.22336574
0.025297284 -0.16659442 -0.09061153 -0.2886377 0.19637337 0.16381326 -0.2866531 -0.24347305
-0.27069747 0.14271921 0.029905945 -0.13481718 -0.2604695 -0.0029257536 -0.041523784 0.104996055
0.31072715 -0.042001665 0.28618285 0.016900003 -0.0749353 0.12623525 0.030083477 0.17202953
-0.31427214 0.0060507953 0.27786157 0.19956067 -0.08371802 0.2216303 -0.1110121 -0.162737
0.30957726 0.11385566 -0.24995786 0.28464988 -0.05123496 0.105356365 0.29564396 0.18572727
-0.2042171 -0.051499933 0.106143236 -0.31059018 -0.2049024 -0.06300533 -0.26828614 -0.0149769485
0.16631198 -0.26258174 0.13329402 -0.24352124 -0.18573935 0.18805769 -0.1505362 0.20680764
-0.20272085 0.0061383545 0.26784143 0.1956183 0.14160627 -0.019226938 0.09803134 0.07570511
0.02709639 -0.22845012 0.29605266 0.11384764 0.31611922 -0.23591626 0.21255872 -0.090173036
0.14072919 0.04638326 -0.16514285 -0.05311975 -0.18072358 0.20479432 0.062690765 0.27003708
0.31589416 -0.31481072 0.2008461 -0.24660133 -0.24607247 -0.3156274 -0.16269557 -0.20308468
-0.0763295 -0.22678593 0.20662835 0.25298885 0.056071848 0.18470404 -0.02318576 -0.1994049
-0.14663294 0.15551472 0.24583933 -0.07277238 -0.2517497 -0.115674585 0.14569184 -0.017827451
-0.11296731 0.15279299 0.055486232 -0.22011366 0.1967102 -0.25386316 0.30177543 -0.28622094
-0.2556373 -0.05178544 0.025405347 0.014861107 0.19431409 0.006478578 -0.225983 -0.2746679
-0.09923279 0.17900926 -0.18886831 -0.019293785 0.2979727 0.01863712 -0.12009443 -0.035336524
0.04398659 -0.047754288 -0.24756856 -0.30297625 -0.26463273 0.042309105 -0.30007505 0.27864447
0.012817591 -0.27305767 0.15303189 0.23248181 0.2581189 0.0072425604 0.23247245 -0.0127568245
-0.25890946 -0.30179805 0.3136542 -0.080924764 -0.0049384832 -0.29040855 0.082307845 0.2450361
-0.088976756 -0.14424773 0.04341516 -0.25745508 -0.076575965 -0.28046453 -0.09920061 0.0049877763
0.28001335 -0.028548688 0.0039696395 0.005227357 -0.19675718 0.1719484 0.27199093 0.28834566
0.30933276 -0.04167393 -0.23826706 0.09669444 0.2620739 0.24175891 0.26299223 -0.080456644
0.22853854 -0.08452897 0.035549223 0.3056439 -0.0578129 0.24005875 0.23215047 -0.14009906
0.081192404 -0.17033398 -0.17335455 0.24314663 -0.25107923 0.28297868 0.1386098 0.30769077
0.30963293 -0.26210877 0.20125201 -0.08027317 -0.21844281 -0.20150611 -0.018265158 -0.16790454
-0.10800865 -0.26765376 -0.037310213 0.31163535 0.17815134 0.018694311 -0.2698581 -0.05120516
00000000: f381 863e d44d 93be ac91 bcbd 089f cd3d
00000010: 7a48 253e d51e 34be 94f5 02be 5a41 0e3e
00000020: 4855 04bd 701f 28bd a8b0 233d 9d59 19be
00000030: fb4e 0bbe db20 51be 7676 90be 405e 19bd
00000040: 0431 873d c0a0 3ebd 78d5 fd3d 5dbf 3fbe
00000050: 8e9f 64be a4d9 c63d 6bc1 913e e6e7 e9bd
00000060: 32c8 6d3e 7877 823d 52ba 8bbe 1842 06bd
00000070: 6a90 363e 9614 463e 6043 b43d 10da ffbc
00000080: 6224 493e 909f c3bc 32d2 1c3e 6c65 8fbd
00000090: 3538 1fbe 80fb 8b3d aa86 4a3e 6d95 933e
000000a0: 48a6 36bd a7ea 803e b3a7 843e 70c5 adbd
000000b0: 85e9 03be c0fe e8bc 4641 5bbe fdb9 64be
000000c0: 403c cf3c ba97 2abe 8a92 b9bd 52c8 93be
000000d0: 1a16 493e aabe 273e 32c4 92be 0051 79be
000000e0: dc98 8abe fc24 123e 50fd f43c 840d 0abe
000000f0: 425c 85be 00be 3fbb d814 2abd 2c08 d73d
00000100: a117 9f3e f009 2cbd 8f86 923e e071 8a3c
00000110: ae77 99bd d043 013e a071 f63c 8228 303e
00000120: 47e8 a0be c045 c63b df43 8e3e a259 4c3e
00000130: 5a74 abbd 0ef3 623e 505a e3bd 87a4 26be
00000140: e980 9e3e 282d e93d f4f4 7fbe a1bd 913e
00000150: c0db 51bd 14c5 d73d a55e 973e 4a2f 3e3e
00000160: 4a1e 51be 98f1 52bd a061 d93d ad05 9fbe
00000170: efd1 51be f008 81bd cd5c 89be e061 75bc
00000180: b04d 2a3e 1d71 86be 3a7e 083e a25d 79be
00000190: 7532 3ebe 3292 403e 2926 1abe 62c5 533e
000001a0: 0e96 4fbe 4024 c93b 8322 893e 2a50 483e
000001b0: 3c01 113e d081 9dbc a8c4 c83d 480b 9b3d
000001c0: 40f9 dd3c d4ee 69be 3794 973e f428 e93d
000001d0: 61da a13e 0894 71be fea8 593e a4ac b8bd
000001e0: 501b 103e 60fc 3d3d 351b 29be 1894 59bd
000001f0: 9a0f 39be 9ab5 513e 0464 803d 4d42 8a3e
00000200: e1bc a13e df2e a1be 9aaa 4d3e 0f85 7cbe
00000210: 6cfa 7bbe ea99 a1be ab99 26be 6ef5 4fbe
00000220: a452 9cbd 923a 68be 6296 533e c187 813e
00000230: 98ab 653d 0e23 3d3e 10f0 bdbc cc30 4cbe
00000240: f226 16be 403f 1f3e 4ebd 7b3e b009 95bd
00000250: 56e5 80be cce6 ecbd 3e30 153e e00a 92bc
00000260: 685b e7bd c475 1c3e 8845 633d 7a65 61be
00000270: 666e 493e 5afa 81be 4f82 9a3e 8d8b 92be
00000280: e4e2 82be f81c 54bd e01e d03c 007c 733c
00000290: 46fa 463e 404a d43b 1668 67be 45a1 8cbe
000002a0: 903a cbbd 344e 373e b266 41be 000e 9ebc
000002b0: e18f 983e e0ac 983c 12f4 f5bd 08bd 10bd
000002c0: 482b 343d 009a 43bd 9d82 7dbe b41f 9bbe
000002d0: f17d 87be 504c 2d3d 70a3 99be 7daa 8e3e
000002e0: e000 523c 37ce 8bbe 64b4 1c3e b60f 6e3e
000002f0: 2928 843e 0053 ed3b 420d 6e3e 0002 51bc
00000300: c88f 84be 4685 9abe 4997 a03e e2bb a5bd
00000310: 00d3 a1bb 6eb0 94be 0491 a83d beea 7a3e
00000320: 7239 b6bd adb5 13be 18d4 313d 27d1 83be
00000330: dcd3 9cbd 0c99 8fbe b029 cbbd 8070 a33b
00000340: e95d 8f3e f0de e9bc c013 823b 404a ab3b
00000350: b77a 49be 3e13 303e 6542 8b3e 0ba2 933e
00000360: dd60 9e3e 48b2 2abd 48fc 73be bc07 c63d
00000370: 8d2e 863e a68f 773e eba6 863e 74c6 a4bd
00000380: 0206 6a3e 861d adbd 109c 113d 5b7d 9c3e
00000390: 38cd 6cbd f6d1 753e dab8 6d3e 2176 0fbe
000003a0: 3448 a63d 086c 2ebe db83 31be 6efb 783e
000003b0: 758d 80be 95e2 903e baef 0d3e a589 9d3e
000003c0: 3588 9e3e 1f33 86be 0215 4e3e 4266 a4bd
000003d0: 79af 5fbe 9e57 4ebe d0a0 95bc 2bef 2bbe
000003e0: a433 ddbd ea09 89be 98d2 18bd ab8e 9f3e
000003f0: 4e6d 363e d024 993c d72a 8abe 80bc 51bd

model.0.bias f4 [128]
0.13465938 -0.03899023 -0.12292984 0.31443077 0.027327958 0.2616289 -0.004472977 0.022111991
-0.25092423 0.08863196 -0.24530631 -0.08895029 0.09701575 -0.26552102 0.10982641 -0.15113069
-0.07049446 0.010758932 -0.23036206 -0.102838844 0.29842505 -0.067314684 0.17620313 -0.31544784
0.09065349 0.25839445 -0.009189917 -0.009087235 -0.17914161 -0.2972769 0.008473944 -0.23406954
0.17040466 -0.2677689 0.17473231 0.03929965 0.019761447 0.12920503 0.117275 -0.2743408
0.14130431 -0.27554214 -0.08134261 -0.007214129 -0.19376165 0.197555 -0.009751294 0.12663777
0.21012118 -0.051838517 0.170589 0.057329416 0.16817059 -0.27839208 -0.22495472 -0.14420347
-0.18090084 -0.0031819046 0.30825356 -0.17860503 0.244043 -0.04964304 -0.14212771 -0.035232782
-0.0052082557 0.012888168 0.16053082 0.05415962 0.13216111 -0.13902612 -0.18489072 -0.19636041
-0.162914 -0.20183885 0.18086027 -0.2331305 -0.29678506 -0.27291837 -0.07800153 0.26477876
0.14421226 -0.044219285 -0.11598784 -0.2955066 0.0017111256 -0.060601294 -0.1511599 -0.23069349
-0.15498644 0.1775029 0.098203264 0.21622486 0.11496344 -0.040277183 -0.25679776 -0.31185845
0.2833388 -0.0030459787 0.11012121 -0.28210425 -0.09432973 -0.04262969 0.24188377 0.04036542
0.10346986 -0.19636708 0.23372978 0.098019786 0.24541861 0.26818013 -0.028557658 0.23234688
-0.06153804 -0.053245157 0.03986946 -0.03533417 0.066871524 -0.0863629 -0.15616094 -0.0016222704
0.015785342 -0.08342436 -0.0416286 0.2499804 0.30148095 0.09495793 0.035458766 0.14399451
00000000: 26e4 093e 38b4 1fbd a4c2 fbbd 12fd a03e
00000010: e2de df3c 39f4 853e 0d92 92bb 3524 b53c
00000020: 2479 80be ac84 b53d 9431 7bbe 922b b6bd
00000030: 32b0 c63d 5ff2 87be abec e03d 01c2 1abe
00000040: 665f 90bd 3b46 303c 08e4 6bbe 2c9d d2bd
00000050: 2bcb 983e 48dc 89bd 986e 343e 6182 a1be
00000060: 89a8 b93d 474c 843e 4e91 16bc a0e2 14bc
00000070: e670 37be ae34 98be 4cd6 0a3c edaf 6fbe
00000080: 8f7e 2e3e 0119 89be 07ed 323e abf8 203d
00000090: c2e2 a13c 534e 043e e02d f03d 6676 8cbe
000000a0: 14b2 103e dc13 8dbe f496 a6bd 8064 ecbb
000000b0: 7469 46be dc4b 4a3e e4c3 1fbc 55ad 013e
000000c0: 022a 573e a054 54bd e2ae 2e3e 40d2 6a3d
000000d0: e934 2c3e 6889 8ebe 885a 66be 13aa 13be
000000e0: 123e 39be 8087 50bb 69d3 9d3e 3de4 36be
000000f0: 68e6 793e 8056 4bbd ed89 11be 4050 10bd
00000100: 04aa aabb e528 533c 3162 243e 7ad6 5d3d
00000110: 3e55 073e dd5c 0ebe fe53 3dbe b412 49be
00000120: edd2 26be d8ae 4ebe 6f33 393e c3b9 6ebe
00000130: 36f4 97be f5bb 8bbe 44bf 9fbd 1591 873e
00000140: 61ac 133e 481f 35bd 088b edbd a44c 97be
00000150: d947 e03a 1039 78bd a9c9 1abe ea3a 6cbe
00000160: c4b4 1ebe 52c3 353e cb1e c93d 0d6a 5d3e
00000170: f471 eb3d b0f9 24bd ff7a 83be e9ab 9fbe
00000180: c811 913e 0b9f 47bb 3b87 e13d f86f 90be
00000190: f22f c1bd 789c 2ebd 61b0 773e 3656 253d
000001a0: 02e8 d33d 7414 49be dc56 6f3e 99be c83d
000001b0: 044f 7b3e e84e 893e c0f1 e9bc 57ec 6d3e
000001c0: 500f 7cbd 9817 5abd 294e 233d 90ba 10bd
000001d0: f0f3 883d 08df b0bd a7e8 1fbe 5da2 d4ba
000001e0: 4350 813c 64da aabd c082 2abd ddfa 7f3e
000001f0: b65b 9a3e 4e79 c23d 363d 113d 4c73 133e

model.2.weight f4 [128, 128]
0.041925542 -0.05386204 0.014842764 0.050162323 0.0014747605 0.05565103 0.05661101 0.044862427
0.069386475 -0.0766868 0.080885716 -0.017499909 -0.06963583 0.05661694 -0.015814729 -0.06215948
-0.053903636 0.01402697 0.08003881 0.0110650435 -0.07654671 -0.034406833 -0.029882103 0.05501335
0.0069930255 0.0030577034 0.031864293 0.038493626 0.062228225 -0.067712545 -0.06467612 -0.0054512173
0.08247382 -0.068116195 0.00826586 -0.070148975 -0.011137024 0.02958285 0.07348675 -0.0055484846
0.052474134 0.050637104 0.007046044 -0.08558547 0.024356507 -0.043118797 -0.059094116 -0.07959308
-0.05745095 0.019332029 -0.07426043 0.040587954 -0.06650297 -0.023246624 0.021979213 -0.010386102
-0.028620627 -0.023029722 0.030713454 -0.013167389 -0.013932303 -0.05314804 0.035249755 0.034768328
0.046285518 0.014515512 0.04854857 0.05750958 -0.01083032 0.035950862 -0.0016776994 -0.045307882
-0.0010994524 -0.01287815 0.06966781 -0.013051689 -0.055941604 -0.017236322 -0.010603987 -0.045342054
-0.015132807 0.036610164 0.023214579 0.045432054 -0.05525553 0.06719261 -0.0011415482 -0.06983022
0.017329805 0.064360656 -0.08154371 0.0076241344 -0.0011087656 0.0227964 0.041705094 -0.0007361397
-0.015569888 0.016772904 -0.06551373 0.032812364 0.08556148 0.05808472 -0.07120605 0.0006422773
0.07199975 -0.029486947 -0.0065466464 0.07027026 -0.065387726 0.0367864 0.036865376 -0.07815171
0.06106151 0.07396852 0.021949708 0.029756263 0.018799104 0.029196322 0.025035694 0.07069441
-0.007840335 -0.017079271 0.0339157 -0.025323614 -0.05113799 -0.05635377 0.0030284375 -0.03294145
0.05837625 -0.07632658 -0.03886149 0.08320234 0.032071613 0.03840614 0.07615702 0.081482135
-0.030030578 0.032780197 -0.010690451 -0.000107213855 0.0617278 0.08098861 -0.019353611 -0.08198256
-0.05659801 -0.0019568459 -0.03999187 -0.061130516 0.03392906 0.08458678 -0.04078412 -0.07487382
0.04554989 -0.047317576 -0.039875995 0.015282899 0.04059387 -0.07045807 -0.05712103 0.078242026
0.0469753 0.026871622 0.023332711 -0.017986676 -0.052419923 0.06891263 0.10524645 0.074093394
0.07006064 -0.024394162 0.058887713 0.07104423 0.04002241 0.06279187 -0.035932146 0.054158468
0.0070934705 0.039639883 -0.028580371 0.018815642 0.024141781 -0.033494364 -0.009186424 0.077380545
0.042901568 -0.07296251 0.081895374 0.04376156 0.08863166 0.075785436 -0.0011089817 0.039542012
0.00045205292 0.07985447 8.009971e-05 0.09120475 0.08494399 0.08023206 0.032408036 0.011041358
-0.085745454 -0.061234437 -0.040454637 0.012753107 0.027596973 -0.05591751 0.0710196 -0.02665153
0.08959307 -0.023046158 0.084040485 -0.019607686 -0.044380825 -0.033255063 -0.022009209 -0.037217923
-0.01673533 0.08795374 -0.051110297 -0.06319623 -0.067551546 -0.075518616 -0.05100719 0.027744725
0.008746896 -0.0731741 -0.014006691 0.041349 -0.04147682 0.045638464 0.04656386 0.087343134
-0.031057285 0.0371098 -0.049210496 0.031980164 0.036847956 0.10601268 0.010823511 0.08107172
-0.005206339 -0.054255363 0.06299055 0.06910852 0.07306109 -0.05190578 0.08399659 0.06263207
0.05159965 -0.031644 0.082345344 -0.04828003 0.081038035 -0.010265536 0.004621408 -0.06438132
00000000: 1eba 2b3d 719e 5cbd 102f 733c 0277 4d3d
00000010: c04c c13a 56f2 633d f2e0 673d aac1 373d
00000020: 7f1a 8e3d f80d 9dbd 69a7 a53d f85b 8fbc
00000030: 3b9d 8ebd 2ae7 673d e48d 81bc f09a 7ebd
00000040: 0fca 5cbd 60d1 653c 63eb a33d 284a 353c
00000050: 86c4 9cbd 2eee 0cbd 50cb f4bc ae55 613d
00000060: c025 e53b c063 483b 2284 023d 7eab 1d3d
00000070: 06e3 7e3d e0ac 8abd ea74 84bd 20a0 b2bb
00000080: 09e8 a83d 8180 8bbd 886d 073c 44aa 8fbd
00000090: 1078 36bc bc57 f23c 3980 963d 10d0 b5bb
000000a0: 1eef 563d da68 4f3d 80e2 e63b 6f47 afbd
000000b0: 4c87 c73c 569d 30bd ac0c 72bd b201 a3bd
000000c0: b051 6bbd 345e 9e3c da15 98bd 8e3f 263d
000000d0: b632 88bd b46f bebc c00d b43c 782a 2abc
000000e0: ce75 eabc d4a8 bcbc c89a fb3c 08bc 57bc
000000f0: 5044 64bc c2b1 59bd 0c62 103d 3c69 0e3d
00000100: e295 3d3d 78d2 6d3c deda 463d 2a8f 6b3d
00000110: a871 31bc 3641 133d 40e6 dbba c294 39bd
00000120: 801b 90ba e0fe 52bc ffad 8e3d c0d6 55bc
00000130: 0623 65bd 3033 8dbc 58bc 2dbc 97b8 39bd
00000140: 98ef 77bc 8af4 153d 802c be3c f616 3a3d
00000150: 9f53 62bd 479c 893d 00a0 95ba 2503 8fbd
00000160: 3cf7 8d3c 85cf 833d 6300 a7bd e0d3 f93b
00000170: 0054 91ba 84bf ba3c f6d2 2a3d 80f9 40ba
00000180: d818 7fbc 5467 893c 102c 86bd 4266 063d
00000190: db3a af3d 3eea 6d3d 7ad4 91bd 805e 283a
000001a0: 9b74 933d 9c8e f1bc 4085 d6bb dbe9 8f3d
000001b0: 00ea 85bd 56ad 163d 2600 173d 010e a0bd
000001c0: a21b 7a3d cf7c 973d e0cf b33c 68c3 f33c
000001d0: 9400 9a3c 202d ef3c a817 cd3c 3bc8 903d
000001e0: c074 00bc d4e9 8bbc 30eb 0a3d 7873 cfbc
000001f0: 1276 51bd 36d3 66bd c078 463b 9ded 06bd
00000200: ef1b 6f3d 1c51 9cbd 3a2d 1fbd fd65 aa3d
00000210: 865d 033d c24f 1d3d 36f8 9b3d 1be0 a63d
00000220: b002 f6bc 8744 063d 0027 2fbc 00d8 e0b8
00000230: 4ad6 7c3d 5bdd a53d 778b 9ebc 79e6 a7bd
00000240: 51d3 67bd 6d3e 00bb 84ce 23bd fe63 7abd
00000250: 33f9 0a3d d53b ad3d 400d 27bd 7257 99bd
00000260: 8592 3a3d 13d0 41bd 0355 23bd 2065 7a3c
00000270: c245 263d 524c 90bd bef7 69bd 5b3d a03d
00000280: 2c69 403d e021 dc3c 3e24 bf3c cb58 93bc
00000290: 46b6 56bd 1122 8d3d 738b d73d 47be 973d
000002a0: f47b 8f3d 44d6 c7bc 3e34 713d a37f 913d
000002b0: 8aee 233d 0699 803d 962d 13bd 45d5 5d3d
000002c0: 5870 e83b 6e5d 223d 6221 eabc 4323 9a3c
000002d0: fcc4 c53c 6331 09bd a882 16bc b179 9e3d
000002e0: 8eb9 2f3d 5e6d 95bd c3b8 a73d 523f 333d
000002f0: 8484 b53d 6535 9b3d 405b 91ba cef6 213d
00000300: 8401 ed39 be8a a33d 34fb a738 8ec9 ba3d
00000310: 1df7 ad3d b550 a43d 4abe 043d d0e6 343c
00000320: 509b afbd f6d0 7abd c3b3 25bd 68f2 503c
00000330: 0c13 e23c c209 65bd b972 913d 4f54 dabc
00000340: 927c b73d 4ccb bcbc 6b1d ac3d 4ca0 a0bc
00000350: abc8 35bd 7636 08bd a84c b4bc d271 18bd
00000360: 8818 89bc 1721 b43d 0859 51bd 066d 81bd
00000370: 7758 8abd 81a9 9abd eaec 50bd e848 e33c
00000380: 244f 0f3c 4ddc 95bd 527c 65bc 925d 293d
00000390: 99e3 29bd 66ef 3a3d bfb9 3e3d f5e0 b23d
000003a0: d96b febc 7200 183d f290 49bd a2fd 023d
000003b0: e2ed 163d 2d1d d93d 1855 313c ee08 a63d
000003c0: f099 aabb df3a 5ebd 3101 813d c588 8d3d
000003d0: 0ea1 953d 289b 54bd 6706 ac3d 3e45 803d
000003e0: 285a 533d 249d 01bd ada4 a83d 48c1 45bd
000003f0: 45f7 a53d c730 28bc 2e6f 973b 5ada 83bd

model.2.bias f4 [128]
0.051865317 0.04424182 -0.018369325 0.048443493 -0.0008574277 -0.033576246 -0.059502352 -0.003237471
-0.083362326 -0.0062280074 0.004750491 0.011846572 -0.010806441 -0.018584263 0.09000622 -0.01581779
0.017741349 -0.054905288 0.09808528 -0.06704548 -0.07586287 -0.023706743 0.09588185 0.01945524
-0.0283712 0.045254543 0.055176266 0.044567652 -0.010760993 0.07060522 -0.08271723 0.012956808
0.04718045 -0.051943976 0.054802313 0.016862128 0.048617132 0.011944488 0.028245859 0.0005045831
0.00485246 -0.013992988 -0.020112403 0.04563146 -0.003443131 -0.090952575 -0.043658055 0.056911938
0.0994387 0.05916301 -0.084395915 0.028579742 0.0011816551 -0.021321075 0.02854657 -0.02637282
-0.057650186 -0.08785306 -0.020066485 0.082642786 -0.0325547 -0.040072262 -0.042711362 -0.027183305
-0.048938505 -0.0137379365 -0.0754396 0.041892305 -0.063292414 -0.045363206 -0.050685145 -0.015082575
0.020864563 0.02215501 -0.06401304 -0.012643244 -0.026427507 -0.04966694 0.06601163 -0.0373951
-0.07379754 -0.07029439 0.040694427 -0.057870008 0.01903455 -0.022235226 0.041513976 0.04291722
0.076676704 -0.08116383 -0.055242315 -0.024587322 -0.060358297 -0.06471917 -0.073797956 0.0010659577
0.006042767 0.04567659 0.056040116 -0.07228004 -0.044354722 -0.0651482 -0.09026362 -0.006741233
-0.000349863 -0.057534494 0.01130946 0.08220806 0.0518722 0.059650805 0.07085782 0.018451711
-0.06648781 -0.06509998 0.02391726 -0.08204776 -0.0040575084 -0.085765705 -0.07604309 -0.035680216
0.016548589 0.08806957 -0.04387456 0.06780122 -0.08187936 0.03444408 0.055271976 -0.0376349
00000000: ba70 543d e936 353d 447b 96bc af6c 463d
00000010: 00c5 60ba 3f87 09bd bdb8 73bd c02b 54bb
00000020: deb9 aabd 5014 ccbb 02aa 9b3b 2018 423c
00000030: 800d 31bc 063e 98bc 2e55 b83d 4f94 81bc
00000040: 4e56 913c 5ee4 60bd efe0 c83d 244f 89bd
00000050: fe5d 9bbd a534 c2bc b45d c43d 9860 9f3c
00000060: b86a e8bc d45c 393d 8200 623d 928c 363d
00000070: e04e 30bc 7899 903d a767 a9bd cb48 543c
00000080: 4a40 413d 35c3 54bd 6478 603d 7222 8a3c
00000090: c222 473d d0b2 433c dc63 e73c 0046 043a
000000a0: 6301 9f3b d842 65bc c4c2 a4bc 0ee8 3a3d
000000b0: 27a6 61bb 5845 babd cad2 32bd 7e1c 693d
000000c0: 84a6 cb3d ea54 723d c4d7 acbd 1020 ea3c
000000d0: c4e1 9a3a 89a9 aebc 7fda e93c d00b d8bc
000000e0: 9a22 6cbd 4eec b3bd 7862 a4bc 9f40 a93d
000000f0: 1458 05bd d022 24bd 1cf2 2ebd 86af debc
00000100: be73 48bd 1515 61bc 1480 9abd 4497 2b3d
00000110: 749f 81bd c5ce 39bd 3a9b 4fbd e81c 77bc
00000120: 29ec aa3c 6c7e b53c 4519 83bd 9c25 4fbc
00000130: 807e d8bc 906f 4bbd 1b31 873d 9b2b 19bd
00000140: 2a23 97bd 81f6 8fbd 33af 263d 1a09 6dbd
00000150: 58ee 9b3c a626 b6bc 8f0a 2a3d f8c9 2f3d
00000160: ad08 9d3d 3939 a6bd c445 62bd 5a6b c9bc
00000170: 433a 77bd 7c8b 84bd 6223 97bd 9bb7 8b3a
00000180: 6702 c63b 6017 3b3d 528a 653d 8f07 94bd
00000190: 4cad 35bd 6b6c 85bd 22dc b8bd 90e5 dcbb
000001a0: d16d b7b9 4aa9 6bbd 504b 393c b35c a83d
000001b0: f277 543d 6754 743d e81d 913d 0b28 973c
000001c0: c32a 88bd 2353 85bd 21ee c33c a808 a8bd
000001d0: d9f4 84bb eea5 afbd 7bbc 9bbd 6b25 12bd
000001e0: e890 873c d25d b43d d0b5 33bd 5edb 8a3d
000001f0: 5eb0 a7bd 3c15 0d3d de64 623d 0e27 1abd
